model_math_reasoning.pth (torch, 274714 bytes, 25 tensors)

conv1.bias f4 [16]
00000000: 2c0c 42b9 3112 9dba 312c 81bb 8dc7 e539
00000010: 0000 0000 d38b 91bb 92b1 bcbb 2938 89bb
00000020: ef30 a33b 2f78 d0bb e6b9 99bb 51db 89bb
00000030: 155b 8abb 0000 0000 33a2 88bb 7722 89bb
-0.00018505816 -0.0011983571 -0.0039420356 0.0004382696 0.0 -0.004441717 -0.0057584727 -0.004187603
0.0049801986 -0.0063619833 -0.0046913503 -0.0042070528 -0.0042222836 0.0 -0.0041697263 -0.0041850167

conv1.lin.weight f4 [16, 768]
00000000: b0d8 c13c f813 85bd ccc7 e93c 7034 333d
00000010: 5aaa 33bc 5309 a9bd 28c3 303b f9ed b7bb
00000020: 2e87 3abc 011b 423d f746 d4bc bb5f 2a3d
00000030: d37c 08bc 917b afbc 0c25 acbb d467 11bd
00000040: 104c 3d3d cf72 b33d 124f eebc c568 183d
00000050: 2822 85bd a6bc ae3d d3cd 90bc 293d 2a3b
00000060: 4914 45bd 27f5 8abd ba49 9d3d b02f c43c
00000070: 87c2 8c3d a971 78bd e98c fcbc 1769 58bd
00000080: d16c 0bbd 59ac 61bc 3669 973d 1991 533d
00000090: 0344 fd3c 901b 823d de5f e9bc 90e5 81bc
000000a0: 9f31 acbd c1c0 34bd 19d3 0e3d 8b22 40bd
000000b0: 9f0e 323c 5c43 353d 6403 953d 8acb b2bd
000000c0: d793 d33c 88c9 c33c 7598 573d 9a5e 7c3b
000000d0: 07f0 72bc 2cd5 0cbd 4ba1 16bc 08d3 873c
000000e0: a7e3 9cbc 2a68 963d 0346 843d 2a1f cbbc
000000f0: 84dd 683c ea98 7cbd e264 ebbc 5c31 0b3c
00000100: 3f2b f1bc ecab 983d 97fa 873d edab 66bd
00000110: 732c 45bd ce9e 253b 6fec 553d f9d9 913c
00000120: a4e0 9b3d 16cf 3abc d4c3 893d 2c25 a63d
00000130: c9d3 f83c ddf2 a1bd 26d4 12bd 9205 8d3d
00000140: 2fb3 653d 7cc5 9a3d d7e8 e5bc fd58 563c
00000150: 88cf 7fbd 79ac 75bd f54d 593c 75f6 12bd
00000160: 31d0 853d 6beb d93c 9d63 9b3d 930a b03c
00000170: 149d 3c3d 538b dbbc 73b1 0bbd 51f8 563c
00000180: 7130 473d a13f b0bd 03f5 7e3d 6362 bcbc
00000190: ba0d 89bd 0fe6 bf3c c84b ad3d c193 6bbd
000001a0: 3236 a83d dca1 493d 7001 94bc 4de2 e23c
000001b0: 2e9b 54bd 730d 89bd 285d 033d 6874 c63c
000001c0: fdc2 743d 8d61 d2bc 4164 8bbc 6839 953c
000001d0: 28e4 99bd ea64 7e3c 5675 8fbd 3b69 833d
000001e0: 0c29 75bc 9cf5 3abd f410 72bd cef1 35bd
000001f0: 046d 89bd 2a93 413c 8509 413c 4054 9abb
00000200: db61 5cbd 8331 093d 2d24 83bc c981 f83c
00000210: 3c5c 82bd f0fe 39bd c7df 5cbd a015 373d
00000220: c5e5 20bd 90ec 70bd 9442 39bd c9d4 ce3c
00000230: dff2 afbc 340e e13b bf82 b23d 603c 8d3d
00000240: 753b acbd 5a02 9c3d 7cef 0ebc cfaf ac3d
00000250: 276d a2bd e821 143d 8e90 413d d1b7 acbd
00000260: 0593 a3bd 01db 903d 1552 9cbd c497 e1bb
00000270: ddfd 903c 1a26 0cbd 4ce5 cbbb c522 933d
00000280: ff29 b2bd 8cfc 8fbd 08d7 1dbd 1cd9 15bd
00000290: 6a5d 36bd c524 503d c36a cd3c 7fcc 2ab9
000002a0: e88c 6c3d 0289 8dbd d944 d2bb 1261 ed38
000002b0: e7a0 7bbd 4105 58bd 9e30 943d 55b5 a03d
000002c0: a8fd c6bc b251 b03d 6584 77bd 65f0 983d
000002d0: c1df 853d f6b4 313d 1061 683d e6ff df3c
000002e0: 3d6e 213c 9d96 913d acd0 96bd 2ad6 e73a
000002f0: b51b eabc 4e38 96bc 9a40 febb b0cf 093d
00000300: d718 ab3d 8455 003d 723d aabc 0cc5 493d
00000310: 381e b3bc f0ba 003c e5af a73c 4a48 393d
00000320: f940 673d 13d1 67bd d723 443b cdd2 1ebd
00000330: 6da7 263d 1140 553d 8423 f4bc 3618 253d
00000340: bdcc 00bd 7b70 823d 6ff5 0abd c771 3abd
00000350: 2ca4 12bd 0035 333c a32b 86bd b89f 0c3d
00000360: 0165 9e3d db88 4ebd 5891 82bd 5c83 81ba
00000370: cc9b 2e3d 16ca f23c c613 9a3d 441e b2bd
00000380: 65d7 5abd f3cb 9c3d 5b75 a6bc 32ec 20bd
00000390: 55af 6dbd 9302 893d f70d a93d 55e3 d9bc
000003a0: e984 dd3b 1d67 603d 3450 113d d426 8cbd
000003b0: 3133 81bc 0c88 0abd 249b a63d d237 c7bc
000003c0: 7204 82bc da72 9ebb efb8 7d3d e060 88bd
000003d0: 7a95 dfbc 2400 80bd 53ad 12bd 7162 913d
000003e0: 0d02 8bbd a817 153d d9fd a5bc e593 05bc
000003f0: fcad 553d 7764 9cbd 8227 47bd 4125 473b
0.023662895 -0.06497949 0.028537653 0.04375118 -0.010965908 -0.082537316 0.002697179 -0.0056130853
-0.011384768 0.047389034 -0.025912745 0.041595202 -0.008330542 -0.021421226 -0.00525344 -0.03549941
0.046215117 0.087621324 -0.029090438 0.03720929 -0.065006554 0.085320756 -0.01767627 0.0025976396
-0.04811505 -0.0678504 0.07680078 0.02394852 0.06873041 -0.06065527 -0.03082891 -0.052834596
-0.034039322 -0.013774001 0.07393114 0.051652048 0.03091622 0.063529134 -0.028488096 -0.015856534
-0.08407902 -0.044129137 0.034869287 -0.046907943 0.010867744 0.044253692 0.07276037 -0.08730228
0.025827331 0.023899809 0.05263563 0.0038508535 -0.014827735 -0.034382984 -0.009193729 0.01658012
-0.019151522 0.073440865 0.06458666 -0.024795134 0.01421297 -0.061669268 -0.028734628 0.008495655
-0.029439567 0.074546665 0.06639593 -0.056316305 -0.048138093 0.0025271657 0.052227434 0.017804133
0.07611206 -0.011401912 0.067268044 0.08112559 0.030374425 -0.079076506 -0.03584685 0.06885828
0.056079086 0.075571984 -0.028065128 0.01308274 -0.062453777 -0.059978936 0.013263215 -0.03587957
0.0653385 0.026601514 0.07587359 0.021489417 0.04604824 -0.026799833 -0.034104776 0.013120727
0.04863018 -0.08605886 0.06224538 -0.022996133 -0.06692071 0.02342513 0.0846172 -0.057513956
0.08213462 0.049226627 -0.018067092 0.0276958 -0.051905803 -0.06692018 0.032071263 0.024225429
0.059756268 -0.025681281 -0.017015578 0.01821585 -0.075142205 0.0155269895 -0.07004802 0.064165555
-0.0149634 -0.045644388 -0.0590982 -0.044420056 -0.06710246 0.011814872 0.011782055 -0.0047097504
-0.05380426 0.033494484 -0.01600846 0.030335324 -0.063652486 -0.045409143 -0.05392435 0.044698358
-0.039281625 -0.058819354 -0.04522951 0.025247948 -0.021478115 0.006868148 0.08716344 0.06896281
-0.08409778 0.07617636 -0.00872409 0.0843197 -0.079309754 0.036165148 0.047257 -0.08433498
-0.07987026 0.07073022 -0.076328434 -0.006884547 0.017699176 -0.034216024 -0.0062224027 0.07184366
-0.08699416 -0.07030591 -0.038535148 -0.036584005 -0.04452268 0.050816316 0.025075322 -0.00016288644
0.057751566 -0.06910898 -0.0064168987 0.000113191214 -0.061432745 -0.052739386 0.072358355 0.07847086
-0.024290875 0.08609332 -0.060428996 0.074677266 0.06536818 0.04338547 0.05673319 0.027343702
0.009852943 0.07108805 -0.0736402 0.0017687727 -0.028577665 -0.018337395 -0.007759166 0.03364533
0.08354347 0.031331554 -0.020781253 0.049260184 -0.021864995 0.007857069 0.020469615 0.045234956
0.056458447 -0.056595873 0.0029928589 -0.038775254 0.040687013 0.05206305 -0.029802091 0.040306292
-0.031445254 0.0636911 -0.03392547 -0.045518663 -0.035801098 0.010937929 -0.06551292 0.034332007
0.07734109 -0.050423484 -0.06375378 -0.0009881067 0.04262905 0.029637378 0.07523303 -0.08697179
-0.053428072 0.07656088 -0.020319631 -0.039287753 -0.058028538 0.06689944 0.08254617 -0.026597658
0.006760229 0.054785836 0.03547688 -0.068433434 -0.01577148 -0.03382115 0.081350595 -0.02431861
-0.01587126 -0.0048354687 0.061943945 -0.066591024 -0.027292956 -0.06250027 -0.035809826 0.07098854
-0.067875005 0.036399513 -0.020262646 -0.008152937 0.052167878 -0.0763635 -0.048621662 0.0030387195

conv2.bias f4 [384]
00000000: 67bb 80bb 2639 ea38 f945 9b3b f188 89bb
00000010: b28a 14ba 20de dab9 9e0c bfb8 3aec a2bb
00000020: 4cd3 68ba 5d0e 18ba 2c1a 56b8 ab15 983b
00000030: 1582 07b9 5e42 afba d058 99b9 e13c d839
00000040: 18d9 4a3b f41b 483a 2bdc ae3b b23c 3139
00000050: 3bbb 6f3a 505d e63a 368d 11ba 081b ca3b
00000060: 211c 543b 1d17 f039 0988 3439 0eee 18bb
00000070: 9f64 3abb d836 833b 650f 07ba 52a7 8cb9
00000080: 6950 c63b d68f cfba d585 b5bb 6a54 d13b
00000090: 50d9 5437 4c72 aeba 0eb6 09b8 49bf 683a
000000a0: 8a40 2b39 274d c7bb b0fb de3a eb53 9439
000000b0: 08e2 903a e61c ccb8 fd71 863a 9666 f938
000000c0: 0f52 9db9 c9d0 c7ba 09f2 a7bb 21b9 9cbb
000000d0: 3ab0 01ba cf35 88bb 7188 b73a dc02 133a
000000e0: f338 00ba 2bfb 4bb9 c5a4 e53a 14c8 7938
000000f0: 36e2 6239 d078 8fb8 4ec5 edba d84b 043a
00000100: 3059 79b9 b3ed 9ebb 8a41 03bb 7ba6 7aba
00000110: f2eb 22ba 87b6 3eba bb90 d9b9 cc85 8f39
00000120: a8a0 c937 e83a ab3b e2ce c439 f09c d4b9
00000130: 6ba9 93bb 0052 87b7 fce2 b13b 6b13 b039
00000140: e2fb 86ba 5647 5eb9 66d8 a2bb 4e50 8639
00000150: 9a87 a039 ba63 b33b 6013 1939 f2fa e338
00000160: 701e 13ba 94f6 a23b 7d9c cfb9 1c96 a13b
00000170: 120b 473a 5de1 adbb 95d2 ca3a 05df a33b
00000180: 4f6a 943b 6c9d ddb9 c0d9 2d36 b876 2fb9
00000190: fb24 c0bb dd89 153b a918 a33b ad58 933b
000001a0: 5b05 24bb 13c2 5439 2b0f 0039 aac0 0f3a
000001b0: 1ee4 9639 59cd 94bb 6126 d539 b711 dbb9
000001c0: 9d27 b9bb 2d0d 483b beac 47b9 4463 70b8
000001d0: a070 55b7 b2c9 1f39 b8dc b03a 1f57 8b3a
000001e0: e13f 193b 4030 a6b9 b45f 5338 7f0f 27ba
000001f0: 40d8 c23b d115 7cba 79ca c63a 0b83 02bb
00000200: e851 4fba f3a6 a83b 0e01 a1b9 afd0 54ba
00000210: 540e da39 54af 5e3a 7be4 bc3b cef9 89bb
00000220: 7464 a238 a1f8 5a3b 925a 073b 168f e939
00000230: 32f2 b3b9 8f0d 233b f0c2 be39 beb6 f4b9
00000240: c300 46b9 2dd5 47ba 6d94 ebba d21a dd39
00000250: e8ab 53b8 9219 31ba 80e9 9fbb 7a74 7bb9
00000260: 7889 9b3b 225a 4f39 92ae 7fba fc39 1a3a
00000270: aaa0 9d3b 3aba 81ba 77fb 423a c268 d7b8
00000280: e01d e5b6 eaf6 363a 1adb e0b9 508c 9039
00000290: 54bb ab3b d24b 823a c479 ad3b aa84 93ba
000002a0: 2752 71ba 2b5d 073a 6fbf a839 60a3 f0b6
000002b0: b658 24ba b5c8 7439 3ab8 8739 12f1 04bb
000002c0: 491c 273a c14b 16b9 d136 c03b 3f2b 9db9
000002d0: 89c2 a239 18db 02bb 569c a7bb 1638 9d3b
000002e0: 68ac b8ba cb31 313a aece 9239 4004 17bb
000002f0: 8519 5d39 24e3 12b8 3106 363b 0c28 b539
00000300: d80a 7bb9 e595 ae3b 8f0b 84ba 13b1 6fb9
00000310: 6bd3 193a af0c ccbb 5cc0 5338 8a10 ad3b
00000320: 09d1 213b a794 8c3b 9e64 ed39 1f78 0bba
00000330: c4b9 e03a 2706 6539 24a3 1a38 3c77 52b8
00000340: 0ed7 8b38 a111 44b9 ad7d ae3b dcce 9abb
00000350: 46a3 be3a 396f bc3b 948b 22ba a6f3 f0ba
00000360: 6c8a 4ab8 8a1d bd3b 67c6 98bb 288e 30b8
00000370: 87ca 1eb9 96f6 d039 4968 8eb9 fc18 51ba
00000380: 0866 bd37 367b ae3b c8e0 8fbb 6108 37b9
00000390: a6fc 3d3a c2d6 a139 40b2 e1b9 7d5a 92bb
000003a0: 3ae4 04bb d427 1ebb fd1f e9b9 3e67 073a
000003b0: 6814 3338 c494 1c3a 4d6f a43b f1b6 ad39
000003c0: 99ed 82ba f481 b939 c5c0 a13b 489e 0db8
000003d0: 81f0 6f39 e8a4 bbb8 3b78 83ba 3315 943a
000003e0: 0080 adbb f293 1f39 2609 aebb 58a7 b63b
000003f0: 0741 25bb efa2 c7ba 3ff5 3639 569a 90bb
-0.00392859 0.00011168634 0.004738566 -0.004197233 -0.0005666419 -0.00041745696 -9.10994e-05 -0.004972008
-0.00088815833 -0.000580048 -5.104595e-05 0.004641255 -0.00012923063 -0.0013371219 -0.00029248605 0.0004124409
0.0030952152 0.000763356 0.0053363047 0.00016902646 0.0009145026 0.0017575417 -0.0005552353 0.006167773
0.00323654 0.00045793588 0.00017216815 -0.002333525 -0.0028441323 0.0040043406 -0.0005152135 -0.00026827544
0.006052066 -0.0015835713 -0.0055396357 0.006388237 1.2686782e-05 -0.001330921 -3.2832897e-05 0.00088786014
0.00016331873 -0.0060821953 0.0017012265 0.00028291284 0.0011053691 -9.732861e-05 0.001025736 0.00011892353
-0.00030006512 -0.0015244718 -0.0051252884 -0.0047828113 -0.0004947219 -0.004156805 0.0014002455 0.0005608031
-0.00048912986 -0.00019453156 0.0017520419 5.9552563e-05 0.0002163731 -6.8412744e-05 -0.0018140466 0.0005046702
-0.00023779715 -0.0048501133 -0.0020028078 -0.00095615507 -0.0006214968 -0.00072751235 -0.00041497298 0.00027374772
2.4035879e-05 0.005225528 0.00037538173 -0.0004055272 -0.00450628 -1.6131438e-05 0.00542867 0.00033583803
-0.0010298456 -0.00021198145 -0.0049696444 0.00025618303 0.0003061861 0.005474535 0.00014598435 0.00010870946
-0.00056121405 0.004973242 -0.0003959871 0.0049312245 0.0007592897 -0.0053064064 0.0015474135 0.0050009512
0.0045292745 -0.00042269693 2.5905756e-06 -0.00016733527 -0.0058637834 0.0022817769 0.004977305 0.004496655
-0.0025027606 0.00020290194 0.00012212682 0.0005483726 0.0002878019 -0.004541081 0.0004065512 -0.00041784134
-0.005650474 0.0030525432 -0.0001904247 -5.7312907e-05 -1.2722012e-05 0.00015238559 0.0013493514 0.0010630823
0.0023384022 -0.00031697936 5.039545e-05 -0.00063728535 0.005946189 -0.0009616288 0.0015166543 -0.0019914533
-0.00079086283 0.005146855 -0.000307091 -0.00081182545 0.00041590875 0.0008494754 0.0057645417 -0.0042106872
7.743473e-05 0.0033412355 0.002065335 0.0004454783 -0.0003432199 0.0024879908 0.00036384864 -0.0004667546
-0.00018883035 -0.0007623013 -0.0017973311 0.00042172387 -5.046642e-05 -0.00067558244 -0.0048801303 -0.00023980616
0.004746612 0.00019774635 -0.0009753491 0.0005883274 0.0048104124 -0.0009897419 0.0007437984 -0.000102715116
-6.8282097e-06 0.0006979542 -0.00042887853 0.0002757036 0.005240837 0.0009940809 0.0052940566 -0.0011254747
-0.0009205662 0.00051637244 0.00032186086 -7.1715767e-06 -0.00062693225 0.00023344423 0.00025886466 -0.002028529
0.0006374759 -0.00014333335 0.0058659096 -0.00029977594 0.00031043988 -0.0019967016 -0.0051150722 0.0047979457
-0.0014089467 0.0006759434 0.00028001278 -0.0023043305 0.00021085709 -3.5020654e-05 0.0027774686 0.00034552848
-0.00023941265 0.0053279274 -0.0010074246 -0.00022858781 0.00058679905 -0.006227098 5.048547e-05 0.0052815126
0.0024691245 0.0042901817 0.00045279128 -0.00053203286 0.0017145206 0.00021841434 3.6868398e-05 -5.0178947e-05
6.6680936e-05 -0.00018698584 0.0053250403 -0.0047243666 0.0014544509 0.0057505635 -0.00062006083 -0.001838316
-4.828947e-05 0.0057713436 -0.0046623233 -4.2094063e-05 -0.00015143502 0.00039856572 -0.0002716205 -0.000797644
2.2578068e-05 0.0053247465 -0.0043908097 -0.00017455361 0.00072474254 0.0003086832 -0.0004304815 -0.0044663534
-0.0020277635 -0.0024132626 -0.00044465056 0.00051652256 4.269593e-05 0.00059730955 0.005018151 0.00033133433
-0.0009989023 0.00035382772 0.00493631 -3.376443e-05 0.00022882411 -8.947571e-05 -0.0010030338 0.0011297822
-0.0052948 0.00015218536 -0.005311149 0.005574148 -0.0025215761 -0.0015231053 0.00017448234 -0.0044129295

conv2.lin.weight f4 [384, 16]
00000000: 55ec 653d 27d9 95bd 497b 433c 8b15 da3d
00000010: 1963 bd3d 952b ec3d 3edc 30bb 37e3 d3bd
00000020: 9888 1ebc 827d 80bd 499f 58bd 5335 003d
00000030: cff3 e33d 3fde f43d 076f 943b 8b20 963c
00000040: 5cc9 ae3a fe59 2f3d b7c0 ea3a 47e8 f53c
00000050: 986a 703c 4fa9 a13d b410 8dbd d10d b1bd
00000060: d70a d43d 31d6 07bd 438b a13d ced4 70bd
00000070: d7c3 f6bd 1068 dbbd 0da5 ac3c 745e cfbd
00000080: 1111 e5bd f562 b3bb 6430 e13d ac83 eebc
00000090: 3d79 c3bd 2561 413d 7584 74bd e595 e53d
000000a0: 2606 09bc d7ab d1bd cd99 51bd 5662 76bd
000000b0: f88c f93c f4cd 8cbd 0599 0dbd 9b1b 87bd
000000c0: c175 cbbd a6aa 94bd e217 183c b214 adbd
000000d0: 3805 cdbc e23f d13d 3638 79bd 8243 95bd
000000e0: 607f 41bd 825c ebbd fe0a b9bc 10e4 9c3d
000000f0: 67a2 01bc 9a70 543d 1863 e6bd 4840 253a
00000100: 25b1 983d fb61 863d 873e 013e 188c 9c3d
00000110: aa75 e8bd c85e 093c e6dd e3bd 0b76 e6bc
00000120: 70d4 863b 181d cebd abb0 753d 12cf 943d
00000130: 6097 4abd c03f 36bc 5334 b8bd 10e6 4abd
00000140: dc10 41bd cb11 dfbc f2b9 393d 4c6e 363d
00000150: 5acb 703d dba6 153d 7784 6f3c 2216 8ebc
00000160: a817 803c fee9 8abd 6f60 ee3d b4d5 4dba
00000170: 87b3 8c3c a0a5 ccbd 3b74 0bbd 1599 60bd
00000180: d13f e9bd 5c35 dabd 7202 bf3d 5e5c 2fbd
00000190: 44db 8d3c 06f3 303c 16f4 0f3d 7cab 003d
000001a0: f3a0 5f3c 181b fbbb c55f 913d a735 94bd
000001b0: 77dd 3f3d 6918 943d 4cd8 eebd a813 193d
000001c0: c456 e63c 7da8 d6bd 7193 663d 49d6 c7bd
000001d0: ddbe 9f3d 2783 d03d 922c fd3d f36f bbbc
000001e0: 7c6c 33bd a3a6 44bd eb51 85bd 38df d23d
000001f0: 66b2 d93d 4856 e3bd 0ab4 78bd 8926 1fbd
00000200: 4b32 e13d 6bf7 e53d f306 3dbd ceb2 d83d
00000210: c887 773c 9078 e53d 827d 743c 24cd d9bd
00000220: 7691 ef3d eed4 c3bc 8396 debd 4ed2 da3d
00000230: 21dd ca3d 94dc ffbc 12fe 9fbd 5bd5 5c3c
00000240: e74f e83d d356 ef3c 5372 ecbd 0953 d23d
00000250: da13 b9bd 50f6 b63a ece0 653d 647e 3bbd
00000260: d037 08bd bbd4 f3bd f361 823d c57e ff3c
00000270: b0dc d43d 20de cdbb a2f3 bebd a2f4 3cbd
00000280: 4772 46bd b6d3 e73c d158 4abd 420b 743d
00000290: 7e5e 7c3d dfc9 32bc 2046 e93d 87fa 3dbd
000002a0: dedc debd dbaa f9bd edb1 cebd 3b3e 7cbc
000002b0: c732 11bd 9488 d43c 20de 893d a384 36bb
000002c0: f14d ecbd c958 4e3d be21 b13b 793a 303d
000002d0: e668 a4bd d8f7 eabd c147 dd3d 6099 e63d
000002e0: b6a8 183d f43b 723d ccc3 813d 3faa 903d
000002f0: d276 e6bd fa12 5d3d adf0 bd3b d7cc 39bd
00000300: 68d9 cbbd df11 573d d5c8 c53d 9517 c63d
00000310: d729 e93d 79ae 283d ee21 eebc 3ad5 a13d
00000320: 0dae 453d 2f5c d83c 8bf6 8cbd c9a3 d4bd
00000330: eaf7 c6bb 90af bbbc f561 e43d 8ab2 9e3d
00000340: a3f5 92bc af85 84bd 6e76 f3bd 8744 713d
00000350: 60d1 b7bd 41e0 123c 02a5 143d 2be0 41bd
00000360: 66dc e93b f633 b9bd 5084 e03b 17cd dc3b
00000370: b414 98bd aa21 55bd bb0e e63a 3cec c23c
00000380: 2a1d f73d 433d 6d3c fec0 0c3d 8f1c 4a3d
00000390: d2e9 3d3d 35df c0bd f610 7fbd 6bae 86bd
000003a0: 60d2 d93d 9de5 d73d 8ffe 503c 248e 2abc
000003b0: 7529 af3d ae0b b0bd 533b 4ebb 368a 8b3d
000003c0: 7586 7ebc 94d8 19bc 09a0 563c c4f1 54bd
000003d0: 6f21 b63d bb30 9c3d eca4 a9bd b036 8ebd
000003e0: d669 5e3d 7d7f a73d 8c54 53bc 140d 133d
000003f0: 9425 373d 5e9d a9bd d2f7 b03d f0bf 393d
0.056133587 -0.07316809 0.011931249 0.1064864 0.09247417 0.1153175 -0.0026986743 -0.10346072
-0.009676121 -0.06273939 -0.05288628 0.031300854 0.11130487 0.119564526 0.004529837 0.018326065
0.0013335156 0.042810433 0.0017910217 0.030017985 0.014673851 0.07893621 -0.068879515 -0.086452134
0.1035363 -0.033163253 0.0788789 -0.058796696 -0.12049072 -0.10713208 0.021074796 -0.101254374
-0.11184896 -0.005474443 0.10995558 -0.02911552 -0.09544609 0.047211785 -0.059696633 0.11210231
-0.008363282 -0.10237854 -0.051172066 -0.060152374 0.030462727 -0.0687522 -0.03456976 -0.06597062
-0.09934569 -0.07259111 0.009283038 -0.08451213 -0.025026903 0.10217263 -0.060844623 -0.07288267
-0.047240615 -0.11492254 -0.02258825 0.07660687 -0.007912255 0.051865198 -0.112493694 0.0006303829
0.07455663 0.06561657 0.12621509 0.07643908 -0.11350568 0.008384414 -0.11126308 -0.02813246
0.00411468 -0.10064143 0.059982937 0.07266058 -0.04946077 -0.011123598 -0.08994355 -0.04953581
-0.04713522 -0.027230164 0.045343347 0.04453878 0.05878768 0.03653608 0.014618984 -0.017344538
0.01563628 -0.06782912 0.11639487 -0.00078519736 0.017175449 -0.09992528 -0.034046393 -0.05483349
-0.11389125 -0.10654709 0.09326638 -0.042812698 0.017316468 0.010800129 0.035144888 0.03141354
0.013649213 -0.007663142 0.07098345 -0.07236796 0.046842065 0.07231218 -0.11662349 0.03737226
0.028117545 -0.10481355 0.056292955 -0.097576685 0.07800076 0.10181265 0.12362017 -0.02288053
-0.04380463 -0.04801048 -0.06509765 0.10296482 0.1062973 -0.11100441 -0.060718574 -0.03885511
0.10995921 0.11228832 -0.046149205 0.10580979 0.015108056 0.11204636 0.0149225015 -0.106348306
0.11697666 -0.023905244 -0.108685516 0.10684644 0.09905458 -0.03123311 -0.07812132 0.013478602
0.11343365 0.029216206 -0.11545243 0.10269744 -0.090369895 0.0013958905 0.056122705 -0.045774832
-0.033256352 -0.119058095 0.063663386 0.031188378 0.10393655 -0.006282583 -0.09323813 -0.046131738
-0.048448827 0.028299194 -0.04940111 0.05958105 0.061613552 -0.010912388 0.113903284 -0.0463815
-0.10881971 -0.12190791 -0.100925304 -0.015395696 -0.035448816 0.025944032 0.0673182 -0.0027850054
-0.11538304 0.05037764 0.0054056337 0.043024514 -0.0802782 -0.11473054 0.108047016 0.11259723
0.03727027 0.059139207 0.063361734 0.07063722 -0.11253132 0.053973176 0.005796513 -0.045361366
-0.09953576 0.052507278 0.09657446 0.09672467 0.113849334 0.041182015 -0.029068913 0.07901998
0.04826169 0.026411144 -0.06882962 -0.10382802 -0.006072034 -0.022910863 0.11151496 0.077488974
-0.017939394 -0.064708106 -0.11887823 0.058903243 -0.08975482 0.008964599 0.036290176 -0.047332924
0.0071368692 -0.09043114 0.0068517104 0.006738316 -0.07425824 -0.052034058 0.0017551997 0.023794286
0.120661095 0.014479938 0.03436374 0.04934364 0.046365567 -0.09417573 -0.062272035 -0.06576236
0.10635829 0.10541842 0.012756004 -0.0104098655 0.08552829 -0.08595978 -0.0031468465 0.06813471
-0.015534987 -0.009390015 0.013099679 -0.05198838 0.08893096 0.07626482 -0.082834095 -0.069440246
0.05430015 0.08178613 -0.0128985755 0.035901144 0.04471357 -0.082819685 0.08641018 0.04534906

mask_head.0.weight f4 [64, 16]
00000000: 9541 563c 1067 e3bd c534 263e d068 703e
00000010: 1831 a23d 2d9a 79be 80cc edbd 28cb 4e3d
00000020: 7fd4 63be f36d f23d 60eb 793d dd81 7ebe
00000030: e362 92bd 9871 cdbd c8b9 46be 8efa 113e
00000040: 6c7f f53d 0470 853d a091 fabc 8074 693b
00000050: b84f 4dbe 3ab1 70be e442 4f3e a852 0abd
00000060: 464e 633e 44dd 83bd 80fe 2a3d e6a5 2e3e
00000070: 784a 4cbd cabb 1fbe e87a b4bd e479 5abe
00000080: a087 753d 3a7f 63be 10d9 07bd 1c73 d4bd
00000090: 0019 2c3b 307d ef3c e4df 4d3e 98b0 6dbe
000000a0: 3a47 20be 1474 8fbd ee95 7ebe 30e8 dbbc
000000b0: a072 43bc 4626 1a3e d87c 203e e0db cebc
000000c0: a79a 363e e1d3 72bd 9855 283e 522b cabd
000000d0: dc24 f7bd 4cf0 693e b70f 803e 80b5 ecbd
000000e0: bb9a ddbd 286c 813e 0286 36be 2589 2a3e
000000f0: 4839 593e a299 33be 0c04 2abd 788e 0dbe
00000100: 4b30 14be 287f 4b3e e2db 3ebd e0e7 cf3d
00000110: fafd 653e dbed 46be 7dcc 6f3d 3cd8 40be
00000120: 5e10 293b 7158 c33c 6a51 6a3e 01a0 323e
00000130: 12f6 073c cc29 6c3e e63c bc3d ecb2 9d3c
00000140: 6a91 353e ebe5 833d c3f0 3f3e c4b7 bdbd
00000150: 2c94 eebd 24a2 203e d4b2 b4bd 8262 803e
00000160: 9848 3abe af9e 61be d091 333e 4c46 2bbd
00000170: 5bb0 a3bd ceb9 3f3e e9ff f1bd 4a89 28be
00000180: eab1 403e 6263 b93d 39aa e1bc d98f a0bd
00000190: d885 ca3d 029b 1fbe b523 953d 7fb1 ef3d
000001a0: f0a8 2e3c c571 203e a90b 59be 1b9c 123d
000001b0: a310 723d f831 fc3d 8843 b6bd 563b a6bd
000001c0: da28 5ebe 129a 67be 36cb 6dbe 880f bfbd
000001d0: 4484 a6bd 2817 063d 108e b5bc 70d1 e53d
000001e0: b062 e33d 32c4 7ebe 8a0b 71be 4af7 223e
000001f0: a458 86bd 4609 163e 08ab 3e3d d8e9 143e
00000200: 58a3 5d3d de2e ad3d c518 673e 9856 373e
00000210: 46e8 633e adb4 35bd 953d 46be 320c 78bd
00000220: e45a cdbb 9a15 69be 2596 17be cd83 08bc
00000230: 1589 813d 0cd2 43be 01ef 4e3d 6db3 0dbe
00000240: 5843 5abd 9d71 6abe 6070 26be 93e2 2bbe
00000250: 2027 5ebe adbe cbbd 2244 9abd 392f 9b3c
00000260: 2983 7ebe 9cef 00be 3c7f 893d dc7d 833d
00000270: 6803 7e3d 1c4b 15be 53fc 753e f893 973d
00000280: e07c 0d3d 206a 52bd 7469 d2bd 3891 69bd
00000290: f685 763e a4d0 c23d f6fd 6f3e f80a 10be
000002a0: d20a 76be 30a5 aa3d d82b e3bd 9c58 d9bd
000002b0: a89f 8b3d 643c 91bd 4c13 7f3e 28e7 7cbe
000002c0: f805 323d 2440 3abe 54dc 07be bc98 4cbe
000002d0: 8410 463e da42 49be 3816 123e 48d9 5c3d
000002e0: d8e0 903d b046 923c 86ef 6f3e 9064 463e
000002f0: b42a e8bd b4bf 353e 2832 4bbe 14e2 42be
00000300: 648b d83d 1016 9cbc f08d 5c3e 9add 2d3e
00000310: 00ad 6cbe f059 c93c 60b4 c93c 02a2 3fbe
00000320: d494 d03d 4e06 59be d8ae 39be 201b cbbc
00000330: fa7b 60be 8a00 1bbe 3443 2abe 1055 16be
00000340: 024c 7f3e 1675 373e 2343 0d3e be7e e93d
00000350: 785f 28be f92a 8f3d fe44 51bd 532d 0b3e
00000360: 0187 9dbd 4e75 133e f175 04be 08e4 6e3e
00000370: b5fd 823e 708e b63c 4723 57bd d635 433e
00000380: e85b 76bd 10b4 22be b868 413e 9016 59be
00000390: 8863 7abd 2cbc 73be c89e 38be 580e 1e3e
000003a0: fc65 ecbd 3081 8fbc 9037 323d 12ad 083e
000003b0: 84be 953d 9620 19be dcbb edbd 2822 773e
000003c0: 3131 00be 6108 febd 6828 9c3d b336 6c3e
000003d0: 9041 2bbd d03a 07be f061 4b3b 43c1 1abe
000003e0: ca78 bc3d c3f6 37be 39ac a1bd 7509 b1bd
000003f0: 1057 2d3e 1879 41bd b311 4abe 2a17 a43d
0.013077159 -0.11103642 0.16231067 0.23477483 0.0791952 -0.2437522 -0.11611271 0.050486714
-0.2224903 0.118373774 0.061015487 -0.24854226 -0.071477674 -0.10031432 -0.19406807 0.14255735
0.119871944 0.06515506 -0.030587018 0.0035622418 -0.20049942 -0.23505107 0.2024036 -0.033770233
0.22197828 -0.064386874 0.041746616 0.17055473 -0.049875706 -0.1559898 -0.08812505 -0.2133556
0.059943795 -0.22216502 -0.03316599 -0.10373518 0.0026260018 0.029234499 0.20104939 -0.23211896
-0.15652171 -0.07004562 -0.24861881 -0.026844114 -0.011929184 0.15053663 0.15672624 -0.025251329
0.17832433 -0.059284095 0.16438901 -0.09871544 -0.12067577 0.22845572 0.2501199 -0.11558056
-0.10820528 0.2527783 -0.17824557 0.16653879 0.21213257 -0.17539075 -0.041507766 -0.13823879
-0.14471547 0.19872725 -0.046596415 0.101516485 0.22460166 -0.19426672 0.058544625 -0.18832487
0.002579711 0.023845883 0.2288262 0.17443849 0.008298414 0.23062819 0.09191303 0.019250356
0.17731252 0.06440338 0.18744187 -0.09263566 -0.11649355 0.15686852 -0.08823171 0.25075155
-0.18191755 -0.22033189 0.17536092 -0.041815087 -0.079926215 0.18723223 -0.11816389 -0.16458622
0.18817869 0.09052159 -0.027546989 -0.07839937 0.0988881 -0.15586475 0.07282201 0.117037766
0.010660395 0.156684 -0.21195854 0.035793405 0.059097897 0.12314218 -0.08899599 -0.08116786
-0.21695271 -0.22617367 -0.2322205 -0.09329134 -0.081306964 0.032736927 -0.022162467 0.11221588
0.111028075 -0.2487953 -0.23539558 0.15914646 -0.065598756 0.14651975 0.046549827 0.1454233
0.054110855 0.08456205 0.22568043 0.17904127 0.22256574 -0.04436176 -0.19359429 -0.060558505
-0.0062669385 -0.22762147 -0.1480337 -0.008332205 0.063249744 -0.19123095 0.0505209 -0.13837977
-0.05328688 -0.22894903 -0.16253805 -0.1678565 -0.21694613 -0.09948478 -0.075325266 0.018943416
-0.24854721 -0.12591404 0.06713721 0.0642049 0.062014967 -0.14579433 0.24022035 0.0740127
0.03454292 -0.05137074 -0.1027402 -0.057023257 0.2407454 0.09512451 0.23436722 -0.14066684
-0.24027565 0.08332288 -0.11092347 -0.10612604 0.068175614 -0.07091597 0.24909705 -0.24697554
0.043462723 -0.1818853 -0.13267642 -0.19980139 0.19342238 -0.19654408 0.14266288 0.053918153
0.070741355 0.017855972 0.23431215 0.19374299 -0.1133627 0.1774891 -0.19843352 -0.19031554
0.10573462 -0.019053489 0.2153852 0.16979066 -0.2311287 0.024579018 0.024622142 -0.18714145
0.10184637 -0.21193811 -0.18133104 -0.024793208 -0.21922293 -0.15136924 -0.16627198 -0.14680886
0.24931338 0.17915758 0.13795142 0.11401127 -0.16442668 0.06990618 -0.051091187 0.13591509
-0.076917656 0.14400217 -0.12935616 0.23329175 0.25584188 0.022284716 -0.052523877 0.19063506
-0.060146242 -0.15889001 0.18887603 -0.21200013 -0.061130077 -0.2380225 -0.1802932 0.15435159
-0.115428895 -0.017517656 0.04351002 0.13347271 0.073117286 -0.14953837 -0.11608097 0.24134123
-0.12518765 -0.12403942 0.076248944 0.23067741 -0.041810572 -0.13206029 0.0031033717 -0.15112786
0.09202726 -0.17965226 -0.07894177 -0.08644382 0.16927743 -0.047234625 -0.19733314 0.08012231

mask_head.0.bias f4 [64]
00000000: 480a b1bc c48b febd 8e7b 1abe 4981 af3d
00000010: 3a04 243e ad37 813e f359 873d b22a 69be
00000020: 4603 0c3e e2dd c43c b01d 37bd 0c3d 68be
00000030: 4487 a1bd 3866 4c3e d8d7 16be 0378 2a3d
00000040: 3620 223e 7a6f 363d 24cc 18bd 6d76 243d
00000050: 6c99 593e 3c53 a1bd 32e2 7dbe 663f 28be
00000060: 1db9 5d3e a27e 673c 64e9 65bd 9609 493e
00000070: 00c7 75be 800b c0bd 48c3 213e 001e dabc
00000080: 68bc 123e ec20 2fbe 5c7c 133e 1247 403e
00000090: 40f2 11bd 3340 ba3c 143f cdbd 1369 063e
000000a0: 4c53 92bd 4a16 02be bc5e 5abe 63c1 903d
000000b0: 7a1d 5abe 34f6 a83d e3ca 543e 4a17 ae3d
000000c0: c0d7 3bbe 73ff 3c3d b02d d9bd ff39 333e
000000d0: ef94 303d 1a23 45be 9c35 823d 500b 7abe
000000e0: a0fd 48be a0ec 49be e8e9 cdbd 5299 0dbe
000000f0: 303e 5fbd 8c01 5fbe cfbe 623e 780e 2a3c
-0.021611348 -0.12429002 -0.15086195 0.08569581 0.16017237 0.2523779 0.06608953 -0.22770193
0.13673124 0.024031583 -0.044706047 -0.22679538 -0.07887128 0.19960868 -0.14730775 0.04161836
0.158326 0.044539906 -0.03730406 0.040152002 0.21249932 -0.07877204 -0.24793318 -0.16430435
0.21652646 0.014129313 -0.05613078 0.19632563 -0.24001694 -0.093771935 0.1579715 -0.026625633
0.14329684 -0.17102402 0.14402908 0.18777111 -0.03563142 0.02273569 -0.10021797 0.1312602
-0.07144794 -0.12703815 -0.21325201 0.070681356 -0.21300307 0.082500845 0.2078052 0.08500536
-0.18344021 0.046142053 -0.10604417 0.17502593 0.043110784 -0.19251671 0.063578814 -0.24418378
-0.19628 -0.19719172 -0.1005438 -0.13828018 -0.054502666 -0.21777934 0.221431 0.010379426

mask_head.2.weight f4 [1, 64]
00000000: cafe 6abc 581a e63d a290 8bbd af46 073d
00000010: f00a fc3c a94a 933d 88f1 773d a4b8 30bd
00000020: d4be 083e 1e2c f63b 9a55 8d3d 683f d0bc
00000030: 426c 8cbd be86 d73d 2a94 babd de31 6b3d
00000040: 2415 e0bd 68d1 4d3d 6388 8abd 0ffa e5ba
00000050: 5a94 d2bd 24ad b33d a0be 50bc 70ad 453c
00000060: ec9a e5bd 5356 dd3d 5398 c53d fa06 bc3d
00000070: 4268 f0bd 5484 05bd b1ca 623d 7f8e cc3c
00000080: 18c0 c63d d0a5 f3bc c012 053e c969 863d
00000090: 286c 3bbd 6714 1bbd 7cee bbbd 3433 d7bc
000000a0: 90af 7dbc 3c2d ae3d fc9a 90bd 76ac f83d
000000b0: 2885 b1bc 4321 c23d 714e cd3d b0df 353d
000000c0: 964b d43d 402a 523a 88f4 2e3d aaa7 e0bd
000000d0: 2b34 61bd a45d 0cbd 4f71 63bc b411 fcbd
000000e0: 5af7 a4bd 86f9 a3bd 0083 383a 00b8 973b
000000f0: 5618 efbd 8e3a a13d 8b9c 9f3d 2e47 bdbd
-0.014342973 0.112354934 -0.06814696 0.033026394 0.030766934 0.07191975 0.060533077 -0.043144837
0.13354045 0.0075125834 0.06901093 -0.02542086 -0.06856586 0.10523747 -0.09110291 0.057420604
-0.10941532 0.050248533 -0.06764295 -0.0017545837 -0.10282202 0.08773258 -0.012740761 0.0120652765
-0.1121119 0.10807481 0.09648194 0.09181018 -0.117386356 -0.0325969 0.055369083 0.024970291
0.09704608 -0.029742151 0.12995434 0.06563146 -0.045757443 -0.037861254 -0.09176347 -0.026269533
-0.015483752 0.085047215 -0.07060811 0.12142269 -0.02166994 0.094790004 0.10024727 0.04440278
0.103659794 0.000801716 0.042713672 -0.109694794 -0.054981392 -0.03426899 -0.013881995 -0.12308064
-0.08054991 -0.08006577 0.00070385635 0.004630089 -0.116745636 0.078724965 0.0779353 -0.09242092

fc1.weight f4 [16, 384]
00000000: 40d1 4ebd a8ad bbbb cc39 993c 6024 8d3b
00000010: c05c 453d 90eb 3b3d 542c 293c 3aa0 44bd
00000020: 00bb 7bbb c165 35bd 009f cb3c 185a aa3c
00000030: 5c89 1fbc 0f35 aebc f5cf 44bd b870 ecbc
00000040: e9cd 32bd 20e5 d73c ac24 29bd ec49 45bd
00000050: 0018 fe3a 6c5f ad3c d827 a0bc 3e66 31bd
00000060: 21de f0bc 50c5 863c 1097 1abc 7027 133b
00000070: 6079 0b3d 862e 34bd 000c b4bc 1ba5 42bd
00000080: cba4 dfbc bcb1 fdbc 90d8 32bd 14bb 55bc
00000090: 34e5 8fbc 440f 0fbd ba38 2a3d e870 2dbc
000000a0: 6c6c 943c 6afd 40bd 325f 353d 99de edbc
000000b0: 3014 913b c0ff 763c c8ad 913c 3206 393d
000000c0: 1012 933c 44a6 0f3c d0c7 4bbc 2c20 8abc
000000d0: e88b 063c d936 adbc f294 0d3d 98bb f5bb
000000e0: c09d fd3a f03c 013d a211 2bbd a871 11bc
000000f0: 70dd 1f3b 800c c8bb 8fa2 32bd a4d9 1f3c
00000100: 6831 ab3b fa16 053d da26 1e3d 43e3 3bbd
00000110: bfd4 f7bc 3091 ecbc 8491 8a3c 8032 643c
00000120: 7821 e73c 7fa4 c0bc 95b5 edbc 802c d7ba
00000130: 1e88 01bd 58a4 8a3c 60d8 c3bb 4c95 ee3c
00000140: a02d 283d 6a7a 50bd 9673 11bd a49d e6bc
00000150: e301 27bd e87d 66bc da63 cfbc 7825 f73b
00000160: 6152 f5bc 2074 af3a 5288 8dbc a0de df3b
00000170: c532 29bd a46c cfbc 38f3 7c3c 48c1 e63c
00000180: 7064 8c3c 940e 32bc 8893 18bd 001e 5439
00000190: c6c8 babc 14e2 253d 293a e5bc 93c7 33bd
000001a0: 70ea ff3c 4057 113b 2f46 35bd d0c1 6d3c
000001b0: d88b 7a3c b0d3 ff3c d065 77bb ece2 233d
000001c0: 886f e8bb b0a7 9cbc 00cc 53b9 e8be c23c
000001d0: 272e 0bbd 2ee0 36bd c04b 613a f019 433c
000001e0: 36a2 473d ee2b 103d e460 47bc 1f77 4dbd
000001f0: 2225 0f3d 98e4 ff3c 7075 433d ac08 40bc
00000200: 9a36 493d 5c4e 373c 608a 1bbd 1c8d 22bc
00000210: 0072 453c ce79 25bd 77d6 afbc 68ae e9bb
00000220: a0bb 17bc 2c35 05bd 8059 bd3c 7c2e a83c
00000230: ca08 84bc 7027 b5bb 1057 573c 7ce5 d83c
00000240: d2bd 4ebd 2925 afbc fc71 173d 2801 673c
00000250: 70e7 df3c acbb 37bd 7833 2e3c 3e78 26bd
00000260: 27cc d1bc b431 e33c c004 fabc 0859 c73b
00000270: 001f 20b9 a8b1 e1bb 68d2 f03b d825 f73c
00000280: 709f 21bc 20f3 f1bc dff1 f3bc 1f30 4bbd
00000290: fc1d 63bc 3e12 083d d4da b63c b8e9 43bd
000002a0: 0e6b 4f3d e8f2 86bc 8a0e 163d 5211 2dbd
000002b0: f6a3 1f3d 0a57 2e3d 08d0 ef3c 8e34 8cbc
000002c0: ca53 14bd 2075 783c 7400 0cbc 2223 383d
000002d0: e08c ceba f826 82bb 1e49 a8bc 8cbd 073d
000002e0: ace0 253d b0e1 3dbc 50af 4f3d 382c 41bc
000002f0: 253f cfbc e7f0 f7bc 6757 00bd b574 25bd
00000300: 3004 123d 9c41 03bd 4cc8 16bd ea92 3bbd
00000310: d0bc 913c f6b8 25bd b408 353d d060 90bb
00000320: a6db 30bd 2a74 2cbd d286 273d d7c5 d5bc
00000330: a2fa 043d 9cc6 a33c 0096 fc3c f8af fb3c
00000340: d0e0 b3bb 5c6a 1bbd c832 9f3c 5452 2a3c
00000350: 8906 e3bc e867 c63c cd2e 4ebd c854 8cbc
00000360: 18b5 3fbd 5c6e 32bd 82d9 e4bc dfa2 c7bc
00000370: 94ed da3c fcfd ec3c 2ebb 01bd d87b 143c
00000380: 1388 14bd e0a1 453c 6037 243b 52b3 123d
00000390: 20af d43c 5c0a 5dbc ccff 1bbc a479 25bd
000003a0: e080 0abd 20db 0cbb 58cb c5bc 80a6 403d
000003b0: 0c56 863c 9893 023c d695 31bd 8422 22bd
000003c0: 20ee 4abb 8c0f 423d b81d dbbb 28c9 1cbc
000003d0: fe45 92bc 54fb e23c d4a1 e13c d05d 313d
000003e0: 861c 39bd f495 993c 88fa 813c 54a4 d53c
000003f0: e827 d33c b247 113d e5a9 dbbc ec86 15bd
-0.050492525 -0.0057274885 0.018704318 0.0043073148 0.048184156 0.045878947 0.01032551 -0.048004366
-0.0038411021 -0.044286493 0.02485609 0.020794913 -0.009737339 -0.021265535 -0.048049886 -0.028862342
-0.043653402 0.026354373 -0.04129474 -0.0481662 0.0019385815 0.021163665 -0.019550249 -0.043310396
-0.029402794 0.016451508 -0.00943543 0.0022453927 0.0340513 -0.04398968 -0.021978378 -0.047520738
-0.02730026 -0.03096854 -0.04366356 -0.013045091 -0.017565347 -0.034926668 0.041558005 -0.010586001
0.018118106 -0.047116674 0.04428024 -0.029036807 0.0044274554 0.015075624 0.01778306 0.045171924
0.017952949 0.008767668 -0.012437776 -0.016861044 0.008212067 -0.021144317 0.034565873 -0.0074991696
0.0019349381 0.031552255 -0.041764863 -0.008877195 0.0024393462 -0.0061050057 -0.04361206 0.009756479
0.0052243955 0.032492615 0.03861127 -0.04587103 -0.030252812 -0.028877825 0.01691509 0.013928056
0.028214201 -0.023515938 -0.02901725 -0.001641646 -0.031623952 0.016924068 -0.0059767216 0.029123925
0.041059136 -0.050897993 -0.035510622 -0.02815134 -0.040773284 -0.014068104 -0.025316168 0.0075423084
-0.029946508 0.0013386048 -0.017276917 0.006831959 -0.041308183 -0.025320359 0.015438847 0.028168336
0.017137736 -0.0108677335 -0.03725007 0.00020229071 -0.022800814 0.040498808 -0.027981834 -0.0438915
0.031239718 0.002217725 -0.044256385 0.0145115405 0.01529213 0.03122887 -0.0037749894 0.04001133
-0.0070933737 -0.019122928 -0.00020198524 0.023772672 -0.03397956 -0.04464739 0.00085943565 0.011908039
0.04873868 0.035198145 -0.012169097 -0.05016243 0.034947522 0.031236932 0.04771942 -0.011720818
0.049124338 0.011188116 -0.03797376 -0.009921338 0.0120511055 -0.040399365 -0.02146457 -0.0071313865
-0.009261042 -0.03252141 0.023113966 0.020529978 -0.016117472 -0.005528383 0.013143316 0.026476614
-0.050473996 -0.021380024 0.03697394 0.014099397 0.027332038 -0.044856712 0.010632388 -0.040642016
-0.025610043 0.027733661 -0.030519843 0.0060836114 -0.00015270337 -0.0068876334 0.007349301 0.030169412
-0.009864673 -0.029534876 -0.029778419 -0.04960644 -0.013862129 0.033220522 0.022321142 -0.047830313
0.050639205 -0.016473249 0.03663496 -0.042252846 0.038974725 0.042563476 0.029274002 -0.017114904
-0.03621272 0.0151646435 -0.00854503 0.04495538 -0.0015758537 -0.0039719306 -0.020542677 0.03313975
0.040497467 -0.011589453 0.0507043 -0.011790328 -0.025298664 -0.030266238 -0.031333353 -0.040394504
0.035648525 -0.03204499 -0.03681211 -0.045794405 0.017790228 -0.040459596 0.044197753 -0.004406072
-0.043178223 -0.04210297 0.04090006 -0.026095314 0.032465585 0.019992165 0.030833244 0.030723557
-0.005489446 -0.03794323 0.019433394 0.010395605 -0.027713077 0.024219468 -0.0503376 -0.01713027
-0.046803564 -0.04356228 -0.027935747 -0.024369655 0.026724614 0.028929703 -0.03167265 0.00906273
-0.036262583 0.01206252 0.002505742 0.035815544 0.025962412 -0.013491239 -0.009521436 -0.04039921
-0.03381431 -0.0021492913 -0.024144813 0.047033787 0.016398452 0.007969759 -0.043355785 -0.039583698
-0.0030964687 0.047378108 -0.0066868924 -0.009569444 -0.01785564 0.027707733 0.027542986 0.043302357
-0.045193218 0.018748261 0.015866533 0.026079334 0.025775865 0.035468765 -0.02681441 -0.036505625

fc1.bias f4 [16]
00000000: daba 03bd 4603 483d b172 24bd e01c 13bc
00000010: 8dbc fabc 8c50 9f3c f654 0e3d c13b 1fbd
00000020: 33ec fabc 1325 c4bc 6093 e7bb 6031 c5ba
00000030: e051 143c 6e10 1a3d 534e 2ebd 30b6 ab3c
-0.032160617 0.048831247 -0.04014844 -0.008979052 -0.030607486 0.019447587 0.034748994 -0.038875345
-0.030630207 -0.02394346 -0.007067129 -0.0015044622 0.009052724 0.037613325 -0.042555165 0.020960897

fc2.weight f4 [16, 16]
00000000: 88e4 5c3e 705d 72be 480b d23d d6da 1d3e
00000010: 0ea1 71be 86bd 1a3e c04d d53b ccc2 d7bd
00000020: b0b4 db3d 4c92 1a3e 1a59 2d3e a871 c73d
00000030: 525d 58be 2825 3fbe 923e 6f3e d09e 84bc
00000040: 6a08 61be b8ba 85bd b0e8 d1bd 802a 273d
00000050: 6e16 62be 8a0b 03be 5068 3bbd 3252 28be
00000060: 2c17 e43d 6619 63be 0035 763c 6c53 8c3d
00000070: 321f 273e caaa 7e3e f630 73be b0f0 dc3d
00000080: ec81 983d 406c 2f3e a84e 943d 34f5 9abd
00000090: faf8 003e 8250 723e 703b 8cbd 18ca 45be
000000a0: 5435 02be d091 dabc 4404 a9bd 22d7 723e
000000b0: 88c0 84bd 608d a43d 58bb 35bd c01c 4abc
000000c0: 0005 a7bc 5881 353e c42a 20be d660 053e
000000d0: 389d 17bd ba93 11be fcaf e1bd b008 b3bd
000000e0: ecdd 4c3e fae0 1fbe 7053 c1bc 32f4 75be
000000f0: 303e 8fbd 9e59 45be e06d 05be fe9a 42be
00000100: c4fe 85bd 2287 723e 3628 1d3e 50fc b0bc
00000110: 40a2 cdbb 0825 7cbd ecd4 ad3d 6896 dd3d
00000120: 3489 2bbe e688 2c3e 004e 683b 501f 19be
00000130: 8072 793c 0e82 3f3e 0093 5bbc 7813 b13d
00000140: 6877 06bd 0094 693e 1cd4 bbbd fc73 fdbd
00000150: b409 3dbe 0a5a 6e3e de76 4e3e f846 0dbd
00000160: b027 36bd 10c2 f9bd f002 9abd 20d9 133e
00000170: 101a d93d a6f8 7f3e cc9c 053e c4a7 d03d
00000180: f40d 29be 4075 c43c f048 eabd 92fe 2fbe
00000190: 0029 3e3e 58b5 33bd 6ccc 6c3e 78c4 fcbd
000001a0: 5649 3abe 0031 babb a831 2cbe b0e4 e8bd
000001b0: 8860 cb3d b09b 6e3d 6238 33be 9c21 43be
000001c0: d811 f33d 0279 173e 7858 933d 2873 3ebe
000001d0: a034 5ebc c062 493d 2048 e63d a218 4e3e
000001e0: 70d4 66bd 28a8 503e 3622 0f3e 3044 e03d
000001f0: 8e41 15be 4a95 543e a0b3 2f3c d40d 2f3e
00000200: 9ae4 203e 64ba d63d 1ce2 06be 808c 7b3e
00000210: c0df 843b 18fa 483d 7a34 4f3e 3e99 42be
00000220: 2c61 10be 58bb d73d 745b aa3d 7837 ea3d
00000230: a057 ffbd 82ed 0cbe 7aac 293e 783c 503d
00000240: 845c 713e 867f 2dbe f041 de3c 88ea 233e
00000250: 48ba 043d b0d4 573d 72d6 6dbe 606b 66be
00000260: 7e2a 39be 00ec efbc b0e4 60be 2eb9 1d3e
00000270: 583b 21be 80fb 333e 805a 56bb 3cb5 44be
00000280: d89b dcbd 6c38 793e 9042 b3bd 4017 d3bc
00000290: b690 4cbe 009e 153c 1072 03be 88af 0b3d
000002a0: ac9d 8f3d 5c55 44be ce17 42be 1263 1e3e
000002b0: c2b2 26be 1028 ab3c 68cc f8bd 14d7 90bd
000002c0: 186a 463d 6c86 613e 605e 3f3c 00fa a0bb
000002d0: 00ca 753d 880c 33be f8ce 943d 2ac7 41be
000002e0: 109d a83d 806e c5bd 4ccd 9abd 50c9 a8bd
000002f0: 10ba 13be f887 e73d 3094 bebc 7e15 5d3e
00000300: 584f 22bd 5e9a 243e 302e f4bd e488 2d3e
00000310: 54f3 f73d 2e23 64be 34a2 fdbd b4fa a6bd
00000320: 867b 12be 6c55 623e c606 46be 2a7d 6d3e
00000330: fcec c3bd 885b 4ebd 5675 73be 60e1 e13d
00000340: 527f 0a3e 3426 6e3e 0050 00b9 6a22 6cbe
00000350: 6a17 19be 2a33 13be 22ee 4a3e 04a5 00be
00000360: fc7d 7dbe 8211 75be 42f5 50be 0084 ddb9
00000370: a645 133e c672 003e 8002 073d 7a8f 413e
00000380: c0a6 073d c072 efbc 7873 c73d 88c7 8ebd
00000390: e4ab ed3d 501a e23c 7eb7 2abe 6c89 c3bd
000003a0: 560f 403e 0a1f 4abe c295 04be 241c a63d
000003b0: b808 07bd 40cc e9bc fe21 08be 68a2 303e
000003c0: 1e79 6ebe d0a6 0dbd cc8d 163e 0cae 53be
000003d0: d2d4 213e 00b5 943a d0cc 1f3d 006c c13d
000003e0: 8881 9ebd e8fc c03d a4c6 febd a00d 04bd
000003f0: d877 46bd 2008 c53c 2c4a 93bd 2027 75be
0.21571553 -0.23668456 0.10256058 0.1541551 -0.23596594 0.1511136 0.0065095127 -0.105352014
0.10727823 0.1509487 0.16928521 0.09738475 -0.21129349 -0.18666518 0.23363712 -0.016189009
-0.21975866 -0.065297544 -0.1024946 0.040812016 -0.22078869 -0.1279737 -0.045753777 -0.16437605
0.11137232 -0.22177657 0.015027285 0.06851849 0.16320494 0.24869838 -0.23749146 0.10788095
0.07446656 0.17131138 0.07241565 -0.075663 0.12594977 0.23663524 -0.06847274 -0.19315374
-0.12715656 -0.026680857 -0.08252767 0.23714879 -0.06482035 0.08034778 -0.044368118 -0.012335956
-0.020388126 0.17725122 -0.15641314 0.13025221 -0.03701517 -0.1421651 -0.110198945 -0.087418914
0.20006531 -0.15613165 -0.023599356 -0.24018934 -0.06994283 -0.19272467 -0.13030195 -0.19004437
-0.06542733 0.23684362 0.1534737 -0.021604687 -0.006275445 -0.061558753 0.08487877 0.10819703
-0.16751558 0.16849098 0.0035446882 -0.14953351 0.015225053 0.18701956 -0.013401747 0.086462915
-0.03282872 0.22810364 -0.09171316 -0.12375638 -0.18460733 0.23276535 0.20162532 -0.03449151
-0.044471443 -0.121952176 -0.075200915 0.14438295 0.10600674 0.24997196 0.13048095 0.10188249
-0.16509229 0.02398169 -0.11439693 -0.17186955 0.18570328 -0.043874115 0.23124856 -0.12342161
-0.18192038 -0.005682111 -0.16815817 -0.11371744 0.09930521 0.058253944 -0.17501977 -0.1905579
0.11868638 0.14792255 0.071946084 -0.18598616 -0.013562351 0.04916644 0.112442255 0.20126584
-0.05635494 0.20376647 0.13977894 0.10950506 -0.14575788 0.20760074 0.010723978 0.17095119
0.15712205 0.1048477 -0.13172191 0.24565315 0.0040549934 0.049066633 0.20234862 -0.1900377
-0.14099568 0.1053378 0.083182245 0.11436361 -0.12467885 -0.13762477 0.16569701 0.050838917
0.23570448 -0.16943178 0.02713105 0.16007435 0.032404214 0.05269307 -0.23226336 -0.22501898
-0.18082616 -0.029287338 -0.21962237 0.15402672 -0.15745294 0.17576408 -0.003270775 -0.1920976
-0.10771912 0.2433793 -0.0875293 -0.025767922 -0.19977078 0.009131908 -0.1283648 0.034102947
0.070124954 -0.19173187 -0.18954393 0.1546748 -0.16279128 0.020893127 -0.121483624 -0.07072273
0.048441023 0.22023934 0.011680216 -0.004912615 0.060007095 -0.17485249 0.07266039 -0.18923631
0.08233082 -0.09640217 -0.075586885 -0.08241522 -0.14426446 0.11305231 -0.02326402 0.2159023
-0.03962645 0.16074511 -0.11922872 0.16946751 0.12106958 -0.22279045 -0.123844534 -0.081532866
-0.14304933 0.22102898 -0.19338521 0.23192278 -0.095666856 -0.05038026 -0.23775229 0.11029315
0.13525131 0.23256761 -0.00012236834 -0.23060003 -0.14950338 -0.14374986 0.19817403 -0.12562948
-0.2475509 -0.2393246 -0.20406058 -0.00042250752 0.14382038 0.12543783 0.03296137 0.18902388
0.03311801 -0.029229522 0.09738821 -0.06971651 0.11605051 0.027600437 -0.16671559 -0.095476955
0.1875585 -0.19738403 -0.12947753 0.08110836 -0.0329673 -0.028539777 -0.13294217 0.17249453
-0.2328839 -0.034582913 0.14702529 -0.20671862 0.15803841 0.0011345446 0.039013684 0.094444275
-0.0773955 0.09423238 -0.124402314 -0.032239556 -0.048454136 0.024051726 -0.071918815 -0.23940706

fc2.bias f4 [16]
00000000: b05d b8bc 5463 1f3e 2c8a 9cbd 3ebe 01be
00000010: 88eb f2bd 7045 d43c c6ad 273e ccd0 c93d
00000020: 0030 0b3a f4b2 07be 1cd8 a63d ccf1 6b3e
00000030: d0c9 36be e0d6 da3d 8844 febd e8c0 453d
-0.022505611 0.15565234 -0.07643542 -0.12670228 -0.1186133 0.025912017 0.16374883 0.09854278
0.0005309582 -0.13251859 0.08146688 0.23041457 -0.17850423 0.106855154 -0.12415415 0.048279673

exp_avg f4 [16]
00000000: 22d3 0a3d bba0 403d 81fa 6c3c ba5a a23c
00000010: 0000 0000 7185 053d 7a98 5d39 7658 b339
00000020: d06d aa3b 4f68 7c3a 0346 2c3a e551 863c
00000030: 1790 303c 0000 0000 a385 0f3d 580f b03c
0.03389276 0.047028285 0.014464022 0.019818652 0.0 0.032597963 0.00021133004 0.0003420745
0.005201079 0.00096285803 0.0006571712 0.016396472 0.010776541 0.0 0.035039555 0.021491691

exp_avg_sq f4 [16]
00000000: 2930 023b 5eee 333c 1eff 3b39 6b19 c73b
00000010: 0000 0000 4aca 0e3a 7054 6332 38eb a533
00000020: 24ef 2f3c 878a 5834 f950 6434 0090 3739
00000030: 2853 9c38 0000 0000 ca3c 573a a04f a039
0.0019865131 0.010982124 0.00017928748 0.006076028 0.0 0.00054470135 1.3232338e-08 7.726197e-08
0.010738168 2.0166964e-07 2.1263612e-07 0.00017505884 7.454149e-05 0.0 0.00082106574 0.00030576903

exp_avg f4 [16, 768]
00000000: c6e2 dab8 718c 443b 3816 71bb 6cdb 00ba
00000010: c3eb 89bb 2aef 0abb daf9 9dba 902c f23a
00000020: 5c67 16bb 6bc0 bd39 895b b13a 2b48 52bb
00000030: b551 2d3b 4f10 493a ce6d b8ba 2657 743a
00000040: 345a 08bb 7aa4 a239 f4ba 78bb 03ba 92bb
00000050: ffa0 b83a 424f e9ba 49b6 25bb edab c73a
00000060: 1dba a93a 9db1 2b3a efab a33a 50a6 efba
00000070: cf21 8c3a 0a8c b0b8 1b8c 9039 3220 443a
00000080: 6534 593b 12be ea39 4197 97b8 160f f13a
00000090: ce5d 57bb b403 3eba 8856 b7b9 d940 173a
000000a0: 678d 10bb 4bdb 48ba 9b7d 7139 3146 143a
000000b0: 3b9c 153b 3997 d0ba 6f9d 10bb 5daf 4e3a
000000c0: 868d b23a f6af 8b3a d3f4 d9ba e72c 653b
000000d0: e81d 3fbb b2da 64ba bd86 0a3b 8633 30bb
000000e0: 1b0d de3a e4c2 af39 8461 eaba ecc1 6dbb
000000f0: 2b23 89ba 312a b739 4f3d 88ba 2cad 83ba
00000100: 0804 063b e0eb 96ba a226 4ebb 9a2d b039
00000110: afa4 33bb 8d12 493a 9df8 9dba e94d 35ba
00000120: 1dfa 483a 9685 073b e736 0a3b 1794 18ba
00000130: 59ca 9c3a c9b4 0639 7faa 0d3b dda3 9f3a
00000140: 2033 1839 ae82 fbba e725 69ba e7f4 383b
00000150: 9a50 963a 5384 15ba 1d44 113b ffa5 983b
00000160: bb68 673b fea7 8a39 c868 a53a 340d 3eba
00000170: 1e4c 19ba 2c21 ca38 1f8e 673b 0b6a 233b
00000180: 2af8 97ba 547c f2ba cb74 dcba d45e cf3a
00000190: c480 21b8 8ae3 fbb9 1ca2 883a 76c2 55ba
000001a0: 9965 50bb 072c 1c3a b28b 873b 752e c83a
000001b0: 2f31 223b 3131 33bb df42 073a d170 0ebb
000001c0: 1b1f c939 1095 b03a 13cf ab3b 8554 afba
000001d0: 2162 3e3b 0136 ad39 af7d 4aba 1b7d 27ba
000001e0: 0edc 043b 6623 163b 0f12 6eb9 da12 093b
000001f0: 01ab 8839 6a7c 173b 68b6 ae3a 946f 1e06
00000200: f82f b5bb 2367 013a 66fb a33a c7fc 513a
00000210: c62d 94ba a197 de39 f9a8 b238 ed0c 123b
00000220: 5cf1 1c3b 2803 283b 647f 6237 fe90 b73a
00000230: 1448 203b 6e77 b03a 68a8 acba 158f 753a
00000240: 5810 043b 0892 d93a 0860 00bb 6fc3 39ba
00000250: de6c ad38 31af 8aba 5daa b93a 9146 9a3a
00000260: 03bc fd37 56e8 1139 8547 98ba 3af4 aeba
00000270: 4d75 9eba 7035 40ba 6751 e73a ba81 983a
00000280: f7a8 2bbb 5677 5dba 70d8 87ba c1ae 3e39
00000290: 447a 213b 2782 2d38 0d87 ff3a b488 30b7
000002a0: 2215 3abb 0c7d 6eba 2105 2e3b d9b6 5f39
000002b0: 36d6 ebb9 295c d038 4663 a239 5218 76ba
000002c0: a8b2 1139 4d3f a93a 60c9 1dbb 63c1 2d3a
000002d0: 6463 f736 c128 a9ba ccec 27ba d43a 8f3a
000002e0: 0028 b73a f4d5 543a 330e 62ba 4ef0 b93a
000002f0: 00c6 99ba 48b4 00b8 55a0 7d39 6f22 003b
00000300: 4ecd daba 9fe5 983a 3a59 09bb 0203 573a
00000310: 58b0 063b 6c33 d43a c8ee 7ebb 662b 62ba
00000320: 8813 063b bf6c 293a c424 8b39 aebd 91bb
00000330: 8e13 4f3b af2e b6ba 32da 7539 baf6 92ba
00000340: ba13 8bba ec1a be3a 18a6 df39 a58b 05bb
00000350: c829 d43a fdc3 f3ba 5ded 06ba 6af0 fb3a
00000360: 9a55 5339 11f6 5aba a578 3fbb 0cce 46b9
00000370: 0c5a 1839 779b bc3a 6581 913a a96a 4c87
00000380: e0d4 27bb 63b4 5e3b ad2d 35bb 572a 97ba
00000390: 2fdd 01bb 089b ccb8 fa62 6f3a fb25 e0ba
000003a0: af81 723b 056e ae3a 42be 0339 3451 cfb9
000003b0: 5db2 a9ba 9c43 813a 1a40 bdba 6285 c939
000003c0: e7b4 02bb 902f d9ba 3b3e 4639 0578 4c38
000003d0: 08b1 48bb f27e 053b 6140 933a 3b2e daba
000003e0: d165 9b39 a3fb 1e3a 17e5 ce3a 6eb7 14bb
000003f0: ac46 2a39 66c4 74ba 3bfd 383a c3a4 61bb
-0.0001043729 0.0029990936 -0.0036786925 -0.0004915509 -0.004209013 -0.0021199682 -0.0012052611 0.0018476415
-0.002294979 0.00036192252 0.0013531308 -0.0032086472 0.0026446406 0.00076699717 -0.001407081 0.00093208475
-0.0020805718 0.00031021592 -0.003795323 -0.0044777407 0.0014086067 -0.001780011 -0.0025285652 0.0015233733
0.0012949143 0.0006549599 0.0012487153 -0.0018283818 0.0010691228 -8.418418e-05 0.00027570207 0.0007481604
0.0033142802 0.0004477357 -7.228414e-05 0.0018391337 -0.0032862308 -0.00072484766 -0.0003496895 0.0005769856
-0.0022056939 -0.0007662072 0.00023030343 0.0005656211 0.0022828716 -0.0015914208 -0.0022066494 0.00078844075
0.00136225 0.0010657299 -0.001662875 0.003496939 -0.0029162113 -0.0008730098 0.002113744 -0.002688618
0.0016941162 0.00033523806 -0.0017881845 -0.0036278917 -0.0010462751 0.00034935915 -0.0010394248 -0.0010046116
0.002044918 -0.0011514388 -0.0031456132 0.00033603312 -0.0027411391 0.0007670306 -0.0012052242 -0.00069162116
0.00076666643 0.0020678989 0.0021089853 -0.0005820407 0.001196216 0.00012846584 0.0021616516 0.0012179572
0.00014514895 -0.0019188726 -0.00088938925 0.0028222145 0.0011468113 -0.0005703617 0.0022165843 0.00465846
0.0035310227 0.00026446575 0.0012619728 -0.0007249892 -0.0005847829 9.638289e-05 0.0035332514 0.0024935033
-0.0011594344 -0.0018500187 -0.0016819475 0.0015821108 -3.8505314e-05 -0.0004804398 0.0010424289 -0.0008154282
-0.0031798838 0.00059574883 0.004136526 0.0015272634 0.0024748554 -0.0027342553 0.0005159806 -0.0021734724
0.00038360883 0.0013472158 0.005243191 -0.0013376629 0.0029050189 0.00033037367 -0.0007724417 -0.00063891866
0.0020272764 0.0022909283 -0.00022704176 0.0020915777 0.0002606735 0.0023114928 0.0013329508 2.9798472e-35
-0.0055294 0.0004936328 0.0012510836 0.0008010384 -0.0011305145 0.00042456112 8.519175e-05 0.0022285536
0.0023947572 0.0025636647 1.350031e-05 0.0014005003 0.0024457024 0.0013463327 -0.0013172748 0.0009367329
0.0020151343 0.0016599307 -0.001958849 -0.0007086312 8.269561e-05 -0.0010580776 0.0014165152 0.0011770298
3.02475e-05 0.0001391483 -0.0011617994 -0.0013347932 -0.0012089402 -0.00073321816 0.0017648161 0.0011635341
-0.002619324 -0.00084482634 -0.0010364186 0.00018184913 0.0024639526 4.1367628e-05 0.0019495204 -1.0522246e-05
-0.0028393944 -0.0009097613 0.002655335 0.00021335053 -0.00044982292 9.935379e-05 0.00030973012 -0.0009387779
0.00013894832 0.0012912542 -0.0024076328 0.0006628243 7.372744e-06 -0.0012905822 -0.000640583 0.0010927566
0.0013973713 0.00081190397 -0.00086233317 0.0014185996 -0.0011731982 -3.0685478e-05 0.00024187689 0.0019551774
-0.0016693266 0.0011665112 -0.0020957724 0.00082020473 0.0020551886 0.0016189641 -0.003889965 -0.00086276827
0.002045842 0.0006463043 0.00026539539 -0.0044476604 0.003159735 -0.0013899411 0.00023446305 -0.0011212446
-0.0010610737 0.0014503873 0.00042657624 -0.0020377424 0.0016186768 -0.0018597838 -0.0005147064 0.0019221429
0.00020154417 -0.0008352707 -0.0029216197 -0.0001895951 0.00014529395 0.0014389594 0.0011101185 -1.5378599e-34
-0.002560906 0.003398203 -0.0027645633 -0.0011533004 -0.0019815674 -9.756355e-05 0.0009131875 -0.0017101163
0.0037003567 0.0013307935 0.0001256401 -0.00039542618 -0.0012946833 0.0009862068 -0.001443866 0.00038437085
-0.0019944252 -0.0016569961 0.00018905934 4.8749167e-05 -0.0030623097 0.0020369855 0.0011234396 -0.0016645858
0.00029639763 0.00060647185 0.0015784827 -0.002269234 0.0001623879 -0.0009337127 0.0007056777 -0.003443048
