model_coding.pth (torch, 274714 bytes, 25 tensors)

conv1.bias f4 [16]
000000 c0 b1 bf bb e8 b1 bf bb 7a 50 f5 b9 16 ed e3 3c
       -0.005850047 -0.0058500655 -0.0004679 0.027823012
000010 66 b1 15 3b e3 de 05 bc f7 a0 a6 bb 12 19 34 bb
       0.0022841333 -0.008170816 -0.0050851065 -0.0027480763
000020 26 7d 11 bc 76 16 2e 3b 58 44 9c bb b3 f4 9a ba
       -0.008879935 0.002656368 -0.0047688894 -0.0011822194
000030 de 08 7e bb 91 90 5c 3c 62 ff f0 3c 19 2a b7 3c
       -0.003876261 0.013462202 0.029418651 0.02235894

conv1.lin.weight f4 [16, 768]
000000 db 2f 8f 3c 0e 6a 8c bd a4 81 9c bc 9c 9b ad 3d
       0.017478874 -0.06856166 -0.019104786 0.08476946
000010 6a ba b1 bc 79 16 97 bd a2 bf a3 bd 23 da 41 3d
       -0.021695334 -0.07377333 -0.079955354 0.047327172
000020 61 9d 40 bd 51 35 18 bd c6 e8 98 3d e0 e6 89 3d
       -0.04702509 -0.03716022 0.07466273 0.06733489
000030 93 83 af ba 3c c6 5d 3c 5e 6f 2e bd 49 84 7b 3c
       -0.0013390653 0.013536032 -0.042586677 0.015351363
000040 aa 68 03 3d d6 ec 0b bd cb 2b f0 bc 52 3e 83 3d
       0.032082237 -0.03416141 -0.029317757 0.06408371
000050 7a 4e 7f 3d fd 89 39 3d 9f 5f 05 3d 08 0a 6e bd
       0.0623307 0.04529761 0.032561895 -0.058115035
000060 6b 59 02 3d 81 b1 9f bc 06 84 6e 3c 3e 43 3d bd
       0.031823557 -0.01949382 0.014557844 -0.046206705
000070 52 7e 16 bd 63 c9 2f bc de e6 1e bd 62 26 c6 bc
       -0.036741562 -0.010729167 -0.03879439 -0.024188224
000080 11 f8 ba 3c c3 f7 aa bd 7d 17 17 bd a1 5e 8d 3d
       0.022823365 -0.08348038 -0.036887635 0.06902815
000090 3f 21 2e bd 14 32 da 3b cd a7 b4 bd b6 43 81 bb
       -0.042512175 0.006658802 -0.08821068 -0.0039448394
0000a0 4c ee 8b 3c 48 56 03 bd a8 81 89 bd 7c 24 f8 3b
       0.017081402 -0.032064706 -0.06714183 0.0075727087
0000b0 15 dc d9 bc 19 84 f2 bc 45 cc af bb d4 5f 33 3d
       -0.026594201 -0.029604005 -0.005364927 0.04379256
0000c0 30 20 a2 bd 29 35 be bc 8b 5d 86 bb 78 56 6e bc
       -0.079162955 -0.023218708 -0.0041005067 -0.014546983
0000d0 24 f5 89 3d 15 93 07 bd 91 44 60 bd e0 f3 d8 3a
       0.0673621 -0.033099253 -0.05475289 0.0016552173
0000e0 cf b3 8f bd 88 08 1a 3d 7c df 25 3c a7 c6 c2 39
       -0.07016718 0.037605792 0.010124084 0.0003715057
0000f0 82 d9 1d 3c 90 06 18 bd 81 f2 29 3c 5c bd a8 bc
       0.009634377 -0.037115633 0.010372759 -0.020598106
000100 6d 52 5c 3d b3 2d 8f 3c 57 bf 72 3d 35 95 94 3d
       0.053789545 0.017477846 0.059264507 0.072550215
000110 74 c0 3a 3d 1e c4 78 3d 1b 47 0a 3d a0 af ae bd
       0.045593694 0.060733907 0.033759218 -0.085295916
000120 f4 54 b8 bd be 50 81 bd 75 b4 86 bd b7 45 84 bb
       -0.090005785 -0.063142285 -0.06577388 -0.004036631
000130 49 c2 cc 3c ca 04 8a 3b c2 88 84 bc 75 73 cd bb
       0.024994986 0.0042119967 -0.016178492 -0.006269867
000140 cd 88 07 bd cc 06 04 3d 65 0a 61 3d 33 9b ff 3c
       -0.033089448 0.032233045 0.054941554 0.031201934
000150 a2 d5 2a 3d ba b2 96 bd 62 7c 5d bd 4c 5f ba bd
       0.041707642 -0.07358308 -0.0540737 -0.09100208
000160 0d 66 b2 3c 49 79 88 bc 03 9f 99 3d 29 01 77 bd
       0.021777177 -0.016659396 0.07501032 -0.06030384
000170 f3 6a 1f 3d 3d 3d f1 3b 49 44 6d bd 9c 1e d6 3c
       0.038920354 0.0073620365 -0.05792645 0.026137643
000180 e6 9b a1 bc 48 2d 13 bd 1c 1f 87 bd 15 0d 8d 3d
       -0.019727658 -0.035931855 -0.065977305 0.06887261
000190 b8 20 b4 3d 6b b9 92 3d b3 a0 81 3d a1 bc fe bc
       0.08795303 0.07164272 0.06329479 -0.031095805
0001a0 92 d8 b9 bd 3b 8e 48 3d 36 06 7b 3d 9d 00 9c 3d
       -0.09074511 0.048963767 0.06128522 0.076173045
0001b0 6b ff 14 bd d3 05 4b 3d 46 94 9f 3d e4 96 4a bd
       -0.036376398 0.0495661 0.07791953 -0.049460307
0001c0 68 7f cc 3b 6b e6 0a 3c ba 34 4f 3c 08 7b 55 bd
       0.006240774 0.0084777875 0.012646848 -0.052119285
0001d0 90 23 da 3c 58 5f 47 bd 5e a8 7d 3d 28 09 9a bd
       0.026628286 -0.04867491 0.061928146 -0.07521278
0001e0 41 70 8e bd d3 f6 2c bd dd 74 9e 3d 97 f9 99 3d
       -0.069550045 -0.042227577 0.07737134 0.075183086
0001f0 ae 02 1a 3d 1a b2 81 bd 16 ab 4e bd 78 21 b9 3c
       0.03760021 -0.06332798 -0.05045613 0.022598967
000200 6c cf 9b bb cd e6 5a bd 49 a2 99 bd a2 b3 58 3d
       -0.004754951 -0.053442765 -0.075016566 0.052905686
000210 f3 e5 47 bd 0f 4d 14 3d f1 77 73 bd ec 2b 8b bd
       -0.04880328 0.0362063 -0.059440557 -0.06795487
000220 ff 7d 3f bd d9 d5 9d bd 28 72 ad bd 46 0c 98 bc
       -0.04675102 -0.07706804 -0.08469039 -0.01856054
000230 22 4f 02 bd 0b c8 60 3c 6c c5 9d bd fd 63 b9 bd
       -0.03181375 0.013719569 -0.07703671 -0.090522744
000240 36 79 82 3b d0 7e 51 3d 13 25 50 3d 61 4c 94 bb
       0.0039817346 0.05114633 0.050816607 -0.0045257066
000250 d3 ee 80 bd 07 b1 1d 3c 64 d8 d8 bc df e1 7d ba
       -0.06295552 0.009624726 -0.02647037 -0.00096848415
000260 ea 93 6f 3c d3 48 9c 3d cc 22 15 3d 82 99 5d 3d
       0.014622668 0.076310776 0.036410138 0.054101475
000270 2a 57 d0 bc 1a df 82 3c 36 e1 8c bd 23 4e 82 ba
       -0.025432188 0.015975524 -0.06878893 -0.00099415
000280 ff 1b 2d 3d 3f 10 92 3d 8f e8 65 3d 83 73 77 bd
       0.042263027 0.07132005 0.05612999 -0.060412895
000290 15 85 2a bc 24 22 85 bd 60 c5 d4 bc 4d a6 21 bd
       -0.010407706 -0.065006524 -0.025973022 -0.039465237
0002a0 2b e1 0e 3a f7 89 a2 3d cd 10 e1 3c 5e 8d 62 bd
       0.0005450423 0.07936471 0.027473832 -0.0553106
0002b0 9c fa 93 bd 8b af 4d 3d df 4c 3e 3d 7f 9e 33 3c
       -0.07225534 0.05021624 0.04646003 0.010963081
0002c0 06 8b 96 3d e7 3a 98 3d 10 eb 99 bd 6b 61 f6 3c
       0.07350735 0.0743311 -0.07515538 0.03007575
0002d0 d2 64 5c 3d 78 53 60 3d ab b0 85 3d d7 40 9c 3d
       0.053807087 0.054767102 0.06527837 0.07629555
0002e0 23 bc 57 bd a6 88 15 3c a9 c9 15 bd bc 43 5b bd
       -0.052669656 0.009126818 -0.03656927 -0.053531393
0002f0 8c bf b3 bd 43 44 59 bd d2 74 98 3c 16 b6 8b 3d
       -0.08776769 -0.053043615 0.018610392 0.068218395
000300 70 8f 39 3d 84 6f bc bb fd 6e 49 bd 9e 68 af 3d
       0.04530281 -0.0057505984 -0.049178112 0.08564876
000310 02 d5 9e bd f9 35 2d bd a6 e6 96 bd 16 33 82 3c
       -0.07755472 -0.0422878 -0.073682114 0.0158935
000320 38 92 8a 3c bc 2f 8b bd 8b 48 93 bd cf 68 98 3d
       0.016915426 -0.06796214 -0.07191571 0.07441866
000330 64 ed 0a 3d db a6 29 3d c0 7f b9 3d 1b 08 97 3d
       0.0339178 0.04141889 0.090575695 0.07374593
000340 1b 49 a3 bb 52 57 98 3d 83 b2 8b 3d a6 1e 25 bd
       -0.00498308 0.0743853 0.06821158 -0.04031243
000350 ca 9d 13 3d 36 04 68 3d e5 87 a2 bd 0d 0c 14 bd
       0.03603915 0.05664464 -0.07936076 -0.036144305
000360 83 59 14 3d 30 c9 96 bd 1a 24 40 bd bc 97 14 3d
       0.036218178 -0.07362592 -0.04690943 0.036277518
000370 72 48 9b bd c9 01 62 bc d2 9c ae bd 3c 34 e2 bc
       -0.07582177 -0.013794371 -0.08526005 -0.027612798
000380 a7 a5 08 bc 64 ad 07 bc 85 50 08 bd 66 21 a8 bd
       -0.008340276 -0.008281086 -0.033279914 -0.08209495
000390 c5 60 67 bd d9 bb 91 bc 6a 1c c3 bb 50 9a 2d 3d
       -0.05648877 -0.017789768 -0.005954315 0.042383492
0003a0 56 c4 39 bd 0f 03 17 bd 1c 09 4c bb 4d 96 86 bd
       -0.045353256 -0.03686815 -0.003113336 -0.06571636
0003b0 0a ca 57 bd 0b 17 ce bc a0 5e 19 ba cf 27 a0 bd
       -0.052682914 -0.025157472 -0.0005850587 -0.07820093
0003c0 16 5d 87 bd fa 19 4f 3c da a9 15 bd 07 94 58 3d
       -0.066095516 0.012640471 -0.036538936 0.052875545
0003d0 85 5b 33 3d c6 7a 54 bd 0d 15 98 bd 7f 7a b7 3b
       0.04378845 -0.0518749 -0.0742589 0.0055993195
0003e0 d5 81 a1 3d 3c 0e 4f bc 17 3e 30 3d 6d c2 a6 3c
       0.078860916 -0.012637671 0.043027963 0.020356381
0003f0 df a1 ae bc 07 0e c6 bc 37 64 b1 bb 32 59 66 3d
       -0.02131742 -0.02417661 -0.005413558 0.056237407

conv2.bias f4 [384]
000000 c7 fa d1 3b 7f 3f 0e bc ca dd 6b 3b 57 4d ff bb
       0.006408069 -0.008682131 0.003599035 -0.007791202
000010 ac d7 eb 3b f9 79 f4 3b 07 02 37 bc 3b 53 d5 3b
       0.007197341 0.0074608293 -0.011169917 0.006510166
000020 19 55 be 3b c5 a0 96 bb 54 2d d3 3a 7d 6c 2a bc
       0.0058084843 -0.004596802 0.0016111531 -0.010401842
000030 8a ef f6 bb 15 07 14 3c 5f 4a 4b bc 84 76 1d bc
       -0.0075358795 0.009034892 -0.012407868 -0.009610776
000040 58 06 3a bb 3b 68 81 3c 89 5f 25 bc 1b 36 19 bc
       -0.0028385129 0.015796771 -0.010093578 -0.009351279
000050 3a c8 b8 bb f0 ed df 38 df d1 13 bc c7 1b a6 3b
       -0.0056391032 0.00010677788 -0.009022205 0.0050692293
000060 45 5d b6 bb 8a 28 22 3b 69 f6 02 3c 20 61 23 bc
       -0.005565318 0.0024743401 0.007993319 -0.009971887
000070 49 0b 25 bc b0 2d 4e b9 2e 25 42 bc f1 6a 10 bc
       -0.010073491 -0.00019662711 -0.011849685 -0.008814559
000080 b1 4b 1c 3c 92 16 f8 3b 15 9d f6 bb f1 c8 b0 bb
       0.009539531 0.00757105 -0.00752605 -0.005395048
000090 8c 4b c2 3b 69 cf 94 bb 6c 18 09 bc 55 bc d6 bb
       0.005929416 -0.004541327 -0.008367639 -0.0065532126
0000a0 e5 59 1e bc c9 f6 1d bc 70 dd bf 3b cf cb 4c bc
       -0.009664987 -0.009641358 0.005855255 -0.012499764
0000b0 73 d0 00 3c 21 f6 c1 3b f5 5b c9 3a 04 6b 1d 3c
       0.007862198 0.0059192334 0.0015362488 0.009608034
0000c0 e4 f3 cf ba 1a 11 25 3b 94 31 55 bc 45 4d e6 3b
       -0.0015865532 0.0025187195 -0.013012309 0.007028254
0000d0 a8 ab 83 ba b7 30 e9 bb 62 17 d2 bb a6 5c bc 3b
       -0.0010045664 -0.007116403 -0.006411479 0.0057483492
0000e0 b7 a5 cc 3b 6e e3 8a 3b e7 f6 1f bc 44 4b 3a ba
       0.0062453407 0.0042385375 -0.009763456 -0.00071065524
0000f0 5e 8b ea 3b e5 08 57 3c ae de 5f 3c 66 13 23 bc
       0.007157727 0.013124679 0.013663931 -0.009953355
000100 0c 2f 57 bc de 9b ce 3b d4 91 00 bb 55 21 10 3c
       -0.013133775 0.006305202 -0.001961817 0.0087970095
000110 ec a5 21 bc e4 2f 4d b9 bf 94 2b bc cc 96 ed bb
       -0.009866219 -0.00019568164 -0.010472476 -0.0072506424
000120 2c 3e 5f 3b 21 53 1f 3c 56 55 2b 3c 91 03 5e bc
       0.0034064157 0.009724409 0.010457357 -0.013550655
000130 8d 2e 17 3b 1b 84 c8 b9 36 0f e6 3a f3 ea fa 3a
       0.0023068518 -0.000382454 0.0017552141 0.0019143507
000140 bf 2f 4f 3b ac 7f d9 bb 5b 55 0d bb 8f 42 19 3c
       0.0031614152 -0.006637534 -0.0021565768 0.009354248
000150 e9 a0 0e 3c eb 53 2e 3c ca cc 34 3c ea 76 22 bc
       0.008705356 0.010640125 0.011035154 -0.009916047
000160 26 ad 10 3c 51 31 04 3c 79 ed 67 3b 6f ce 0e 3c
       0.008830344 0.008068399 0.0035389347 0.00871621
000170 43 b3 13 3c bc 11 22 bc 82 53 b5 3b 53 21 3e bb
       0.009014907 -0.0098919235 0.0055336365 -0.0029011562
000180 68 ca bf 3b 30 95 cc 3b 46 98 d7 3b b8 60 b0 3b
       0.005852986 0.0062433705 0.0065794317 0.0053826235
000190 f0 82 90 ba 48 f4 85 3b 3f 46 4c 3c ed 05 0d 3c
       -0.001102535 0.0040879585 0.01246792 0.00860737
0001a0 5c 64 1d bc fd 03 1b bb 48 1f 31 bc 2b 57 15 bc
       -0.009606447 -0.00236535 -0.010810681 -0.009115021
0001b0 ef e2 cc ba a3 37 d0 3a b1 14 4e bb 86 b3 05 bc
       -0.0015631596 0.0015885722 -0.0031445439 -0.0081604775
0001c0 97 af 16 bc 3c 54 aa 39 91 01 14 bc 01 1b f4 3b
       -0.009197137 0.00032487686 -0.009033577 0.007449508
0001d0 29 22 fc bb c1 b9 fe bb 03 fe 5b bb a7 a8 5d bb
       -0.007694502 -0.0077736084 -0.003356815 -0.0033822448
0001e0 59 97 1d bb 05 54 20 3c 17 8b 05 bc 53 f4 30 3c
       -0.002404651 0.009785657 -0.008150837 0.010800439
0001f0 58 bf e0 bb c4 da 11 bc 4c 2d 4f 3c ae 43 1c 3c
       -0.0068587475 -0.008902255 0.012645077 0.0095376205
000200 f3 ad 6f 3c 65 9f 1f bc 5c 93 b6 3b bd 08 1a 3c
       0.014628875 -0.009742592 0.005571766 0.009401497
000210 65 cf 09 bc c6 bd 4e bc 47 0a d3 3a a5 95 2c 3c
       -0.008411263 -0.012618488 0.0016101085 0.010533725
000220 67 4d 00 bc 1e d1 21 3c 31 7f 1f 3c 33 f1 31 bc
       -0.007830954 0.009876518 0.009734915 -0.010860729
000230 72 28 f9 3b 4d 28 3c 3c c5 d1 08 bc 08 45 9c 39
       0.0076036984 0.011484218 -0.008350794 0.0002980607
000240 b3 77 ce 3b f4 64 4d 3c 83 d5 3c 3c db 2e 21 3c
       0.0063008904 0.012536276 0.011525515 0.009837831
000250 e2 cc 1b 3c 0a c7 b6 3b f0 3d 67 bb b6 f1 90 3b
       0.009509297 0.0055779265 -0.003528472 0.0044233454
000260 88 5d 1d bc 0a 78 00 3c bb 5e 04 3c a3 f3 0a 3c
       -0.009604819 0.00784112 0.008079226 0.008480939
000270 dc ba 49 3c e4 93 b3 3b 1e bd 1b 3c 11 2d e0 bb
       0.012312617 0.0054802764 0.009505538 -0.00684131
000280 10 7e 27 bc 2b 29 30 3b b8 01 ff 3a 2a f5 39 3c
       -0.010222927 0.0026880007 0.0019455468 0.011349956
000290 94 12 f6 bb 2d 73 28 bc 8b 87 55 bb 06 5f c6 bb
       -0.007509539 -0.010281366 -0.003258201 -0.006053808
0002a0 be 9f e0 3b b2 b5 55 bc 6b 36 1c 3c 25 1e 55 bc
       0.0068549803 -0.013043808 0.009534459 -0.013007675
0002b0 6b 0b 1a bc 6d db 21 bc 54 2b 82 bb 86 ef 1b 3c
       -0.009402136 -0.009878975 -0.0039724503 0.009517556
0002c0 a2 e3 88 bb 83 10 a6 bb 9b b9 be 3b ee 21 f5 bb
       -0.0041775266 -0.0050678863 0.0058204657 -0.0074808514
0002d0 38 2b 00 3c e7 ca 1d bc 9d 70 9f bb 7f bf 8b 3b
       0.007822804 -0.009630895 -0.0048657195 0.0042647715
0002e0 1e 4b 19 3c 84 5d 41 bb e2 d1 45 3c 2b 7c 2a 3c
       0.009356288 -0.0029505203 0.012073966 0.0104055805
0002f0 f4 67 ee bb b1 3e 2e 3c 16 a6 da ba 08 28 ce bb
       -0.007275576 0.010635064 -0.0016681578 -0.006291393
000300 41 e6 20 3c 29 9b fa bb 64 04 82 3c d0 0f 3e 3c
       0.009820522 -0.007647891 0.015871234 0.01160045
000310 c9 3e 80 3b ca 69 37 b9 fa 52 de 3a 61 ae 65 3b
       0.0039137346 -0.0001749165 0.0016961985 0.0035046565
000320 d7 31 20 bc ef 19 2d bc c5 01 45 bc 17 da 16 bb
       -0.009777508 -0.010565265 -0.012024348 -0.0023018175
000330 01 06 ba bb c3 a0 1c bc 2f 12 e8 bb 13 36 dd 3b
       -0.0056769853 -0.009559813 -0.007082246 0.006750831
000340 f2 f0 3f bc c3 61 4e 3a 86 ac 35 ba 14 dc a7 3b
       -0.011715161 0.0007872844 -0.000693031 0.005122671
000350 fc 48 6f 3c ae 4f 4f bc f8 fa 44 bc ce 5b 4c bc
       0.014604803 -0.012653274 -0.012022726 -0.01247306
000360 36 4b 0f 3c 14 ae 02 ba d1 cd 26 3c 55 3b 6e 3c
       0.008745959 -0.0004985046 0.010180906 0.014540513
000370 a0 4b f0 bb e1 b6 a4 3b 65 11 02 bc c6 06 35 bc
       -0.007333234 0.0050266837 -0.0079387175 -0.011048978
000380 91 e0 5b 3c ff 68 45 bb 62 b0 8b bb a7 72 20 bc
       0.01342024 -0.0030122397 -0.00426297 -0.00979296
000390 b9 40 13 bc f9 6f a8 3b 49 99 d1 3b 94 c9 72 3b
       -0.008987599 0.0051403013 0.006396447 0.003704642
0003a0 1d 17 dd 3b e4 ed b7 3b fe 48 26 3c ec 2e 26 bc
       0.00674714 0.0056130756 0.010149239 -0.010143023
0003b0 a8 91 92 ba a3 73 69 bb 34 c2 d0 3b bc 82 fb 3b
       -0.0011182325 -0.0035621903 0.006370807 0.007675497
0003c0 ee 97 28 3c 80 58 1d 3c cd c2 62 bb 4c 9b 06 bc
       0.010290129 0.00960362 -0.0034600974 -0.008215737
0003d0 cf 7a 44 bc 4a 84 3a bc b5 c1 a8 3b a2 c8 ff b9
       -0.0119921705 -0.011384079 0.005150045 -0.00048786873
0003e0 dc cd bd bb 74 cb 29 bc ef 20 10 3c 49 48 a9 bb
       -0.0057923626 -0.010363448 0.0087969145 -0.0051660878
0003f0 09 aa 8b 39 89 7b ec 3b 68 06 00 3c 92 f2 7a 3b
       0.00026638832 0.007216875 0.007814027 0.0038291556

conv2.lin.weight f4 [384, 16]
000000 f2 22 80 3c 93 09 90 bd 54 c5 14 bd 46 16 5d 3d
       0.015641663 -0.07033076 -0.036321 0.05397632
000010 55 2f 70 bd 91 6c bb 3d b0 02 80 3d 35 26 87 bd
       -0.05863889 0.09151567 0.062505126 -0.06599084
000020 02 f8 a0 3d 50 0f 7d 3d a6 4d 5f bd a5 8a fb 3d
       0.07859804 0.06178218 -0.05451741 0.12282304
000030 9d ef 82 bd 0e 23 b1 3d d5 66 92 bc b8 57 cc bd
       -0.06393359 0.08649264 -0.0178713 -0.099776685
000040 92 71 bb bd a4 f9 42 3d f8 79 df 3d 98 e7 75 bb
       -0.09152521 0.047601357 0.109119356 -0.0037522074
000050 a5 4a 8c 3b 67 c9 33 3d 9e 66 d1 bd b5 6e 51 bd
       0.0042813593 0.043893244 -0.10224651 -0.05113097
000060 da 9b 13 bd 28 5b 8a bc 82 6e 3d bd a1 77 f0 bd
       -0.036037304 -0.01688917 -0.046247967 -0.117415674
000070 6b 52 67 3d fb 61 ef bd b8 c9 d5 bc 7a d9 fc 3c
       0.056475084 -0.1168861 -0.026097164 0.03086542
000080 9c ea f3 bd b5 8b a3 3d a6 3a 82 3d 75 c1 9b 3d
       -0.119099826 0.079856314 0.063588426 0.076052584
000090 2d 0c ef 3d a8 53 2a bc 72 ee ec 3d 53 72 09 3d
       0.11672244 -0.010395922 0.11568917 0.033556294
0000a0 12 93 a2 bd 50 45 87 3c f9 ff 5a 3d b3 20 d3 bd
       -0.07938208 0.016512543 0.05346677 -0.10308971
0000b0 99 f7 ca bd 51 2e b7 3d 2d c7 59 3c 66 65 4f bd
       -0.09910507 0.08944381 0.013292116 -0.05063381
0000c0 5d ca fe 3d d2 4d 33 bd e2 b0 8a 3d 2a 63 ca 3b
       0.124409415 -0.043775387 0.06772019 0.006176372
0000d0 74 5c 5e 3d d3 26 c6 bd 8e ae 06 bd e2 d9 ce bc
       0.05428739 -0.09675374 -0.032881312 -0.025250379
0000e0 ca eb a8 3d b2 4f b6 bd ec c3 ab bd 51 03 ca bd
       0.08248098 -0.089019194 -0.083869785 -0.09863914
0000f0 8a d5 e3 bd 23 75 36 bd 52 28 c0 3b 37 58 e7 ba
       -0.11124714 -0.044545304 0.0058641816 -0.0017650191
000100 22 83 d2 3d bf 6b 2f bd 41 2e 6c 3d e7 68 33 3d
       0.10278918 -0.042827364 0.0576613 0.043801215
000110 95 d1 b5 3d c6 f2 cd 3d ce 33 f5 3c 38 de 52 bd
       0.08877865 0.10056071 0.029931929 -0.051481456
000120 2b ff a8 bd f8 77 de 3d cc 20 d8 3d 42 45 9d bc
       -0.082517944 0.10862726 0.105531305 -0.019198064
000130 e7 6d 46 3d 2e 03 ad bd cd 24 09 bd 6e 62 b2 bd
       0.048444655 -0.08447872 -0.03348236 -0.0871018
000140 38 50 97 3c df 93 cc 3c e1 f1 bf bd 59 76 e9 3d
       0.018470868 0.024972854 -0.093723066 0.11399526
000150 63 d0 9a bd 3e c6 07 3d 71 8a 4c 3b 7f a9 de bc
       -0.07559278 0.033148043 0.0031210447 -0.027180431
000160 9d 9e 3f bd df b3 93 bd 12 fd 39 bd 86 7a a1 3c
       -0.046782125 -0.07212042 -0.045407362 0.019711744
000170 4f 81 93 3d 6d cb 2c bd b1 77 89 3d 32 2c 8d 3d
       0.07202398 -0.04218619 0.067122824 0.06893195
000180 a0 0b 6e 3c ee ee cd 3d 00 29 fd bd dc 56 bd 3d
       0.014529139 0.10055338 -0.12361336 0.09245083
000190 b0 75 b6 3d 7c 46 01 be 40 8d ba bd 1e a6 cf bd
       0.08909166 -0.12624544 -0.091089725 -0.10139106
0001a0 2b 79 97 3d 1c 80 84 3d c4 a3 b8 bc e5 36 bf 3d
       0.07396158 0.064697474 -0.022539027 0.09336642
0001b0 3b 13 e2 3c a7 6f 79 bd ea 4b 41 ba 50 b1 05 bd
       0.02759706 -0.060897496 -0.0007373678 -0.0326398
0001c0 cd 25 88 3d 79 04 94 3d 20 9e 50 bd 46 db 30 bd
       0.06647835 0.072274156 -0.05093205 -0.043177865
0001d0 62 d2 a9 bd 1c 04 9f bd 34 bf 6f bc 16 a7 d8 3d
       -0.082920805 -0.07764456 -0.014632989 0.10578744
0001e0 91 7f 4d bc c5 2d ae 3c 9c b2 d0 3d 04 1d be 3d
       -0.012542621 0.021262059 0.10190317 0.09282878
0001f0 48 52 9d 3c 1a b0 0e bd 78 ba 6b bd f2 2a bc 3d
       0.019204274 -0.034835912 -0.057550877 0.09187879
000200 b5 c4 83 bd 2f 90 57 bd 57 d6 ba bd f3 9f d6 3d
       -0.06434003 -0.05262774 -0.09122913 0.10479727
000210 b6 2d df bd 94 cf 7e bc d9 0a ac 3d a7 c1 e2 3c
       -0.108973905 -0.01555242 0.084005065 0.027680231
000220 83 61 30 bd 26 42 d5 3d ae 28 7a bd ad 96 c7 3d
       -0.043061744 0.104130074 -0.06107395 0.09745536
000230 7d 15 32 3c 37 49 c9 3d 4e 9b c3 3d 88 3b 3f 3d
       0.010869381 0.09828418 0.095511064 0.046687633
000240 80 6c b3 bd 8d 62 8b 3d b3 31 fd bd aa 98 de bc
       -0.08760929 0.068059064 -0.12362995 -0.027172405
000250 a3 d2 d6 bd 1a 44 c5 3d 56 74 86 3d 85 1f b7 3d
       -0.104893945 0.0963213 0.06565158 0.08941559
000260 87 f5 d1 bd e6 bc 22 3d d4 e4 c4 bd 40 c0 c3 3d
       -0.10251909 0.03973093 -0.09613958 0.09558153
000270 f2 b4 5c bc 22 4a 82 bd f8 37 46 3d 0c 09 82 3c
       -0.013470875 -0.06361796 0.04839322 0.015873455
000280 a5 4e 43 bd 84 24 af 3d 11 2e 60 3d ae 8c d5 bc
       -0.047682423 0.08551887 0.054731432 -0.026068058
000290 69 b3 01 be b7 1e 2c 3d b6 02 71 3c b5 04 17 bc
       -0.12666096 0.04202148 0.014710119 -0.009217431
0002a0 d0 9b 31 3d 12 09 2e 3d 0c 49 aa bd a7 85 aa 3d
       0.043361485 0.04248912 -0.08314714 0.083262734
0002b0 0c 90 ae bd e0 ae cc 3d 62 bc 48 bd ae 5a a3 3d
       -0.085235685 0.09994292 -0.04900778 0.0797628
0002c0 34 ea 85 3b 92 11 7d 3d 0f 92 8a 3d f2 cc d0 3d
       0.004086757 0.061784334 0.0676614 0.1019534
0002d0 52 7e db bc dc 73 4f bd d5 c1 34 3c 31 60 26 3d
       -0.026793633 -0.0506476 0.011032541 0.04061908
0002e0 3c 21 eb 3d 4e c7 a4 bd 6d 8f 95 bd 09 01 8b 3d
       0.11480948 -0.08045827 -0.07302747 0.06787307
0002f0 d0 a2 bd bd 70 9b ba bc 13 14 92 bd cf 99 c4 bd
       -0.0925957 -0.022779197 -0.07132735 -0.09599649
000300 a8 30 c4 3d 25 f2 f2 bd f4 47 f0 3c b6 75 46 3d
       0.09579593 -0.11862592 0.029331185 0.0484521
000310 46 40 a0 3c aa 40 ea 3d 00 41 85 3c b0 44 0c bd
       0.019561898 0.11438115 0.016266346 -0.034245193
000320 cd 06 fb 3d f0 db 8c bd 95 8c 18 bd 73 a7 d5 bd
       0.122571565 -0.06877887 -0.037243444 -0.10432329
000330 67 76 0a bd 2f b1 a6 3c 59 41 a4 bd b3 96 4b bd
       -0.033804324 0.02034816 -0.080202766 -0.049704265
000340 9a a6 6e 3d 20 df d4 bd 96 30 03 3e 0a c1 7a 3d
       0.058264352 -0.1039412 0.12811503 0.061219253
000350 0d e3 6a 3d 93 a6 dc bd f6 8f d5 3d d9 e2 b2 3d
       0.05734544 -0.10773959 0.10427849 0.08734674
000360 18 48 ee 3d f8 20 79 bc db 22 bf bd 66 4a a4 bd
       0.116348445 -0.015205614 -0.0933282 -0.08022003
000370 3e 01 cd 3d fd 7f 5f bd ba 08 86 bd 6a 80 1b 3c
       0.100100026 -0.05456542 -0.06544633 0.0094910655
000380 b2 68 79 3d 57 6e 7f 3d bc a9 86 bd 25 52 de 3c
       0.06089086 0.062361088 -0.06575343 0.027138779
000390 b8 ef c6 3d 44 91 d3 bd de 13 ac bd 6d 22 ac bd
       0.097136915 -0.103304416 -0.08402227 -0.08405004
0003a0 6a 2e 57 3c 90 6b a8 3d 8a 77 aa 3b 4c 83 8b 3d
       0.013133625 0.08223641 0.0052022384 0.06812152
0003b0 27 d5 da bd d2 c6 79 3c 4b 4c 80 bd 2b 4e 87 3d
       -0.10685187 0.015245156 -0.06264552 0.06606706
0003c0 42 76 89 3d 41 ac ad 3d 94 39 61 bd f6 de 89 3d
       0.06712009 0.084801205 -0.05498655 0.067319795
0003d0 17 da e2 bd 02 f6 32 3d 82 ed bd 3d ec 14 d6 bd
       -0.110767536 0.043691643 0.09273817 -0.10453209
0003e0 3b 9a 82 bc 34 58 38 3b d3 3e d1 bc b6 0a a6 bd
       -0.015942683 0.0028128745 -0.025542652 -0.08107512
0003f0 7f 0a c8 bc 45 bb ed 3a 01 ad ae bd e1 7d 83 3d
       -0.024419067 0.0018137476 -0.085290916 0.06420494

mask_head.0.weight f4 [64, 16]
000000 ed c3 12 3d b8 db cf bd 3a ca 1b be 9c d1 13 3e
       0.03583138 -0.1014933 -0.15213862 0.14435428
000010 30 34 3b 3d ff 5f 3d 3e bb c0 08 be d9 23 36 3e
       0.045704067 0.18493651 -0.13354771 0.17787112
000020 69 f7 33 be cc 04 f0 3d c3 d6 cf bd 36 28 23 3e
       -0.17574848 0.11719665 -0.101483844 0.15933308
000030 34 7e 26 3e 2f 07 b5 3d 55 04 0b be e2 f7 81 3d
       0.1625908 0.08839261 -0.13575871 0.06346108
000040 94 74 02 bd 2d 96 87 3d 0c 65 8b be 65 2d c0 3d
       -0.03184946 0.06620441 -0.2722553 0.09383658
000050 a6 f0 87 3b 4e 25 84 bd e0 3a 87 3d e6 ff f5 3b
       0.0041485606 -0.06452428 0.066030264 0.007507312
000060 af ee 17 be 7c 79 06 bd 03 fe d1 3d 2c 8d c2 3d
       -0.14837144 -0.0328307 0.10253527 0.09499583
000070 f3 dd 93 3c 30 0d 3f be 4a 2f ce bd f4 77 09 be
       0.01805017 -0.18657374 -0.100676134 -0.13424665
000080 20 3f bb bd a0 f4 fd bc 54 b7 04 be 40 52 76 bd
       -0.091428995 -0.031000435 -0.12960559 -0.060137033
000090 d6 a8 32 3e d0 d2 68 3d 48 17 a3 bd c4 2b 38 be
       0.17447218 0.05684167 -0.07963425 -0.17985445
0000a0 26 04 52 be 28 41 f7 bd 9c c4 d0 bd 08 58 3e be
       -0.20509395 -0.120729744 -0.1019375 -0.18588269
0000b0 0e 24 61 3e bc 6f 20 be ec 86 ce bd c8 0c 53 3e
       0.2198641 -0.15667623 -0.10084328 0.20610344
0000c0 ae 7b 7d bc bd 3d 33 be 8c 24 e9 3c 45 37 b9 bc
       -0.015471382 -0.1750402 0.02845981 -0.022609362
0000d0 8b 27 61 be 6f 97 25 3d 1c 9b 4a 3d 9f 87 61 3e
       -0.2198774 0.04042762 0.04946433 0.22024392
0000e0 0e ef 06 3d 36 f7 3b 3e f6 70 e6 3d db cd 90 3d
       0.032942824 0.18356022 0.11252014 0.07070514
0000f0 16 10 34 be e0 3d 87 3c 79 07 1b be d9 5a 28 3d
       -0.17584261 0.016508996 -0.1513957 0.041102264
000100 94 8c 63 be 84 a9 ea 3d 0b c6 39 bd 82 a7 53 be
       -0.22221595 0.11458114 -0.045354884 -0.20669368
000110 ec f2 11 3d ef 3c fc bd 46 a7 66 3e 15 ff 00 3e
       0.03563206 -0.1231631 0.22524747 0.12597306
000120 c5 d0 c8 bd c7 81 c8 bd 89 58 1d be 1d be e8 bd
       -0.09805445 -0.09790378 -0.15365805 -0.11364386
000130 cb 0d c0 bc 6e ca 15 bb cb f3 8e 3e 2d 86 12 3e
       -0.023444077 -0.0022856253 0.27920374 0.14308996
000140 b4 3f 16 be 7a c2 d9 bd 8e 95 4e be 1c d7 24 3e
       -0.14672738 -0.106327966 -0.20174238 0.16097683
000150 b9 83 63 be 96 90 85 be 27 d6 9c 3d 32 f7 e1 bc
       -0.22218217 -0.26086873 0.07658034 -0.027583692
000160 d4 34 93 bd cc 30 66 3c 78 06 c9 bd e4 ec 79 be
       -0.071878105 0.01404972 -0.09815687 -0.24406773
000170 66 c5 00 bd c1 72 39 3d 55 cd b5 bd 88 0f 2b bd
       -0.031438254 0.045275453 -0.088770546 -0.04176286
000180 aa 6b 63 3e 80 b3 40 3d 66 8a 20 3e 98 37 42 be
       0.2220904 0.047046185 0.15677795 -0.1896652
000190 70 c3 8f bc 12 db 1a 3e 60 1a 99 3d f0 9d 8a 3d
       -0.017549247 0.15122631 0.07475734 0.067684054
0001a0 4e d7 7d 3e 78 a7 99 bd 98 86 09 bd 30 01 19 3d
       0.24789163 -0.07502645 -0.033575624 0.037354648
0001b0 30 db 1e be d4 24 74 be ac 48 cd bd 90 6f 1f be
       -0.15513301 -0.23842174 -0.10023627 -0.15569901
0001c0 b3 b9 4d bd 96 02 d7 3d 28 ee bc bd 55 6e ea 3d
       -0.050225925 0.1049854 -0.09225112 0.114468254
0001d0 1a f4 a4 bd 23 c5 ad 3d fc a5 8a ba d1 b8 80 3e
       -0.08054371 0.084848665 -0.0010578032 0.25141004
0001e0 d1 81 12 3e d7 5a 98 3c 71 1a 2c be b2 a6 c3 3d
       0.14307334 0.018598003 -0.16806962 0.09553279
0001f0 e0 15 76 bd e3 08 26 3e ae 50 84 3e 39 b7 59 3d
       -0.060079455 0.16214328 0.25842804 0.05315325
000200 40 90 48 bd 8c f2 60 be 90 34 df bd 04 46 20 3e
       -0.048965693 -0.21967524 -0.108986974 0.15651709
000210 44 c5 35 be f0 e1 5a 3e d4 aa 77 be 8e 57 2b be
       -0.17751032 0.21375251 -0.2418626 -0.16732618
000220 20 01 7f 3d 78 fb 65 3e 20 9b ff bc 70 ca a1 3c
       0.062256932 0.22459209 -0.031201899 0.01974985
000230 e8 8f 00 bd 00 b8 36 bc 98 31 12 3e 78 69 bf bd
       -0.03138724 -0.011152267 0.14276731 -0.093462884
000240 7a cf 5d 3e 62 2b 47 be 66 84 56 be 90 ae a1 3d
       0.21661177 -0.19450143 -0.20948943 0.07894623
000250 80 0e 0d 3b b4 a8 f2 3d 40 80 6b 3e 94 14 40 3e
       0.0021523535 0.11848584 0.22998142 0.1875785
000260 18 e5 0d bd 46 4a 6b be a4 1d 4e be e0 d6 c2 bd
       -0.03464231 -0.22977552 -0.20128495 -0.095136404
000270 fc 9d 1f be e8 e1 30 3e b8 db f3 bd b0 5d 09 be
       -0.1558761 0.17273676 -0.119071424 -0.13414645
000280 1c 13 a5 3d 50 b1 dc bc 1c 35 a4 3d e6 71 00 be
       0.080602854 -0.026940018 0.08017942 -0.12543449
000290 c0 1e f6 bb f0 be ba 3c 40 37 06 be f0 0e b8 3d
       -0.00751099 0.022796124 -0.13107014 0.08987224
0002a0 5a 6c 4e be 78 6c 7f bd dc 84 3c be ba 02 21 3e
       -0.2015852 -0.062359303 -0.18410057 0.15723696
0002b0 a8 f3 c1 3d f0 b8 29 3d 60 e2 69 bc 30 ac 58 bd
       0.09470302 0.041436136 -0.014275163 -0.052898586
0002c0 98 ac a6 3d 9a 23 09 3e 65 74 00 bd 62 ff 44 3d
       0.081383884 0.13392487 -0.031361002 0.048095115
0002d0 65 26 2b 3e b9 a0 b5 3c 75 45 4d be f8 f9 15 3e
       0.16713865 0.022171365 -0.20046027 0.14646137
0002e0 48 b7 83 be 7c 55 57 be f6 fd 5f 3e 37 95 5c bd
       -0.2572577 -0.21028703 0.21874222 -0.05385324
0002f0 74 e7 3b 3e 21 b1 4f 3e 72 d6 61 be 0e b8 bd 3d
       0.18350011 0.20282413 -0.2205446 0.09263621
000300 d7 da e1 bd e2 3e ed bd 6c 13 00 3d 23 35 d7 3c
       -0.110280685 -0.115842596 0.031268522 0.026270455
000310 16 f7 00 be 84 fc 8a bd d6 49 48 3e 53 32 39 be
       -0.12594256 -0.06786445 0.19559416 -0.18085603
000320 5c 44 0a be 69 53 0b be b2 43 41 3d 50 ab f8 bc
       -0.1350264 -0.13606037 0.0471837 -0.030355126
000330 e0 79 37 3c 85 3d b3 3d 2f 1f 70 3e a5 9c d6 3d
       0.011198491 0.08751968 0.23449396 0.10479096
000340 99 06 00 3e 34 b1 b4 3b aa 76 66 3e c3 50 73 be
       0.12502517 0.0055142883 0.22506204 -0.23761277
000350 d3 63 43 3d e0 a4 58 3d d1 e1 06 3e 4a 0b 5b be
       0.04770262 0.052891612 0.1317208 -0.21391025
000360 d6 26 52 be b3 7e e0 3d e4 2a 6c 3d 64 e0 62 be
       -0.20522627 0.10961666 0.05765809 -0.2215591
000370 a4 7e 6d be d5 ab ed 3d 3d 82 1c be 46 02 b9 3d
       -0.23192841 0.1160504 -0.15284057 0.09033637
000380 d1 73 8a bd c6 26 ec 3d 08 53 f0 bd b7 3e 35 be
       -0.067603715 0.11530833 -0.11734587 -0.17699705
000390 04 b3 1f be 66 19 03 be dd f8 5b 3d fa 04 82 be
       -0.15595633 -0.12802657 0.05370413 -0.25394422
0003a0 21 73 6d be 0e a7 47 3e 6d 94 5d bd 0e c6 3a be
       -0.2318845 0.1949732 -0.054096628 -0.18239614
0003b0 01 e0 3e be a2 38 5e 3d 51 e1 ed bd 54 d1 f9 bd
       -0.18640138 0.054253228 -0.11615241 -0.12198129
0003c0 37 d4 cb bd bb cf 1b 3c b3 91 17 3e 79 a8 b8 3d
       -0.09952586 0.009509976 0.14801674 0.090165086
0003d0 7a f7 3c be c2 2d 1b be d3 99 ca bd c8 12 28 be
       -0.1845378 -0.15154174 -0.09892621 -0.16413414
0003e0 cf 6b 89 3d 97 aa 52 bd da 44 f7 3d e5 ba 38 be
       0.06710016 -0.05143222 0.12073679 -0.18040045
0003f0 32 a1 24 be 0d d2 bb 3d 92 9e be 3d 5c 1b 46 bd
       -0.16077116 0.091709234 0.09307589 -0.048365936

mask_head.0.bias f4 [64]
000000 44 ff 36 3c 0c 08 9c 3d b4 1e 1b be f8 86 21 3e
       0.0111692585 0.07618722 -0.15148431 0.15774143
000010 9d 36 15 3d 1f a0 0b 3c 80 e8 e9 bd 08 cf 61 3e
       0.036429036 0.008522063 -0.11421299 0.22051632
000020 cc 50 7e be 8c b2 8c bd cc 3d 22 be 31 1f fc 3d
       -0.24835509 -0.068699926 -0.15843886 0.12310637
000030 9a 15 8c 3e ef 3a 32 3e 69 60 46 3d 1c ff 81 3e
       0.2736023 0.17405294 0.048431788 0.25389946
000040 ce 5a 3e be 29 8e ab 3d 9e 53 70 be 89 c0 4e 3b
       -0.18589327 0.08376724 -0.23469397 0.0031547865
000050 e1 3c 28 3d 69 13 8c bd f2 fb 1c 3e dc c8 86 3c
       0.041073684 -0.0683964 0.15330485 0.0164532
000060 0e 05 18 be 27 8b 9b 3d 2c 36 12 be d9 14 49 3e
       -0.14845678 0.075949006 -0.14278477 0.19636859
000070 f8 f3 6a bd 8b 3e ad bb 00 a0 2d 3e 3a 3c 42 3b
       -0.057361573 -0.0052869967 0.16955566 0.0029637949
000080 55 86 43 3e 93 6e b3 bc e2 dc 41 be 40 df e8 bd
       0.19094212 -0.021903312 -0.18931916 -0.113707066
000090 cf 4f 84 3e 5a 0c e8 3d e4 e3 04 3e 35 b1 66 be
       0.2584214 0.11330481 0.12977558 -0.22528537
0000a0 88 0c ed bd a6 4b c8 3d ac b0 5f 3e a5 88 bb 3d
       -0.11574656 0.09780054 0.21844739 0.09156922
0000b0 74 3d 1a be 21 61 96 bc 7d b4 dc 3d 79 ca 5f 3d
       -0.15062505 -0.018356862 0.10776613 0.054636452
0000c0 d0 9d a1 bd 30 a5 61 bd 52 60 37 bd 00 11 c4 bc
       -0.078914285 -0.055089176 -0.044769593 -0.023933887
0000d0 30 75 40 be a0 73 d0 bd 30 49 0a be 1e 8f 6e be
       -0.18794703 -0.10178304 -0.13504481 -0.23296782
0000e0 64 c9 65 be 0d 02 1b 3d e2 8a 17 be f0 15 17 3d
       -0.22440106 0.037843753 -0.14799073 0.036886156
0000f0 53 f2 d1 bd 40 8e fe bd 16 9b 61 be c2 15 a7 3d
       -0.10251298 -0.12429476 -0.22031817 0.08158447

mask_head.2.weight f4 [1, 64]
000000 c4 11 bb bc bd 5d 59 bd 7a 73 a4 bd ef d9 37 bd
       -0.02283562 -0.05306791 -0.08029838 -0.044885572
000010 e6 0c 13 3e a7 fc c8 bc 82 ee 89 bd 9a ca 8c 3d
       0.14360389 -0.024534537 -0.06734945 0.06874581
000020 6c 6c ef bd 92 b8 f8 3d 4c 0d 02 bd db 55 41 3b
       -0.11690602 0.12144579 -0.031750962 0.0029500637
000030 e2 72 6d 3d e9 68 d5 bc ea 39 1b bc 11 b5 0e 3e
       0.05797089 -0.026051002 -0.009474257 0.13936259
000040 f8 77 ce 3c 65 09 1c 3e b0 4a 09 bc c2 c1 92 bd
       0.02520369 0.15237959 -0.008379623 -0.071658626
000050 f4 59 8e 3d 3f 61 e1 3c ec d0 36 3d 37 42 70 3d
       0.06950751 0.02751219 0.044632837 0.058656897
000060 60 3c 79 3c 1d 1a 9c 3b d4 6f 4b bd 94 fb fd 3d
       0.015212148 0.004763855 -0.049667194 0.124015
000070 cc 8e 6b bd 04 79 b7 3a a8 72 d8 3d 70 0e d6 bd
       -0.05750923 0.0013997857 0.10568744 -0.104519725
000080 cd 6a a1 3d b0 48 bf bd 54 65 3e 3d 0c 02 4a bd
       0.07881699 -0.09340036 0.046483353 -0.04931836
000090 0e 6a 85 3d a4 15 04 3e c7 fe b7 bd 2f 53 08 3d
       0.06514369 0.1289888 -0.08984142 0.033282455
0000a0 64 80 c7 3d 58 7c 0a 3d 14 20 9d 3d 3c 6d ae bd
       0.097412854 0.03380999 0.07672134 -0.085169286
0000b0 b4 f8 31 3d bd 4f d0 bd 58 35 d8 bc 2b 6d d3 bc
       0.043450072 -0.10171459 -0.026392624 -0.025808891
0000c0 4a 47 ef 3d d4 64 de bc 31 1a d6 3d 30 5e db bd
       0.11683519 -0.027147688 0.10454214 -0.10711324
0000d0 2e cc 87 bd 50 e1 0a bc 60 c4 d9 bd ce 3a ab bd
       -0.06630741 -0.00847657 -0.10633159 -0.083608255
0000e0 20 1c c5 bb 92 68 c2 3d 12 36 a6 bd 48 57 a0 bd
       -0.0060153157 0.094926015 -0.08115782 -0.078291476
0000f0 9b 62 01 3e 98 15 99 bc 54 17 ab bd fd 4e ef 3d
       0.12635271 -0.018687055 -0.08354059 0.11684988

fc1.weight f4 [16, 384]
000000 00 59 8c 3c 60 18 b8 ba 10 a2 38 3b 00 9e ca b8
       0.017132282 -0.001404535 0.0028172769 -9.6615404e-05
000010 68 a0 0d bd ac 8f 13 3c 40 eb 11 3b 45 ad 2d bd
       -0.034576803 0.009006422 0.0022265464 -0.04240157
000020 10 e3 55 3b fe d3 4a 3d 20 dd 60 3c a4 d5 ad bc
       0.003263656 0.049518578 0.013724595 -0.021220036
000030 38 4d 1f 3d 30 84 46 bb 2a 6d ca bc ec 15 1b 3d
       0.038892 -0.0030291192 -0.024710257 0.037862703
000040 50 6e 36 3c 58 dc e3 bb c8 ad 4c bc 66 57 42 3d
       0.011134699 -0.0069537573 -0.012492605 0.04744663
000050 16 8e 24 bd 40 50 6b ba 18 57 94 3b 8b 03 35 bd
       -0.040174566 -0.0008976497 0.004526984 -0.044192832
000060 6c 05 05 bd 64 74 a0 3c 6a 32 34 3d c2 51 47 3d
       -0.032475874 0.01958675 0.04399339 0.048661955
000070 30 d0 3c bc a0 3a 1d 3c a8 48 0d 3c 66 4e 2f 3d
       -0.011524245 0.009596497 0.00862328 0.042799376
000080 f8 4b 88 3b 59 7e ef bc 94 53 71 bc 80 5a 0a 3d
       0.004159447 -0.029235052 -0.014729399 0.033777714
000090 34 9e a5 3c 60 2a 2d 3c 0a 8b 30 3d 26 e0 36 3d
       0.020217039 0.010569185 0.043101348 0.04464736
0000a0 62 29 4a 3d 8e 3c 30 3d e4 e0 be 3c 38 d4 8d bb
       0.049355872 0.0430265 0.023300596 -0.004328277
0000b0 70 ff 35 3d 98 7e ce bc 78 1d 1c 3c 10 3a 40 3c
       0.044433057 -0.025206849 0.00952851 0.011732593
0000c0 18 1c b1 bb 78 cd e2 bb 60 c4 0f 3c 26 2f 43 bd
       -0.0054049604 -0.0069214664 0.008774847 -0.047652386
0000d0 40 53 12 3a 48 28 49 3d ac 04 ef 3c c3 23 18 bd
       0.0005581863 0.04911068 0.029177032 -0.03714348
0000e0 a9 ea 2f bd e0 7c 73 bc e2 6c 2f 3d e0 8a a5 bb
       -0.0429484 -0.0148613155 0.042828448 -0.0050519556
0000f0 28 38 cc 3c 68 94 3b 3d f9 cd 22 bd 84 8e d1 3c
       0.024929121 0.045795828 -0.039747212 0.025580652
000100 58 29 42 3c ee 1e a3 bc 72 c8 2e 3d d9 b3 3d bd
       0.011850677 -0.01991221 0.04267163 -0.046314094
000110 08 3b 7f 3c 14 8d 9d 3c 0c b8 db 3c 24 cd 16 bc
       0.015578039 0.01923231 0.026821159 -0.009204183
000120 f0 7a 61 bb c1 c9 03 bd 0b 7b dd bc f0 62 7d 3c
       -0.0034405552 -0.03217483 -0.02703621 0.015465483
000130 b8 72 9e bc 40 52 86 3c e8 22 f2 bb 60 f0 93 ba
       -0.019341812 0.016396642 -0.007389415 -0.0011286847
000140 56 65 0c 3d 6d 21 0d bd 51 3d 3f bd 74 21 1e bd
       0.03427633 -0.034455705 -0.046689335 -0.038606122
000150 2e 88 20 bd 5a 3a 11 bd ed 32 4f bd 40 56 37 3d
       -0.03919237 -0.03545604 -0.050585676 0.04475999
000160 20 bb ea bb e4 f8 44 bd 5a 6e 1a 3d 42 2f 3f bd
       -0.0071634203 -0.048088923 0.037702896 -0.046675928
000170 37 90 df bc 8c b5 f1 3c a0 ff c7 3a 74 2c 73 bc
       -0.027290447 0.029505514 0.0015258677 -0.014842141
000180 92 81 3c bd 78 25 0d bd c4 7f 31 bd 2e e0 3f bd
       -0.046022005 -0.03445956 -0.043334737 -0.046844654
000190 f0 dd 0a 3b c1 60 d7 bc a4 fe 3e 3d f1 37 d3 bc
       0.0021189414 -0.026291253 0.046629563 -0.02578351
0001a0 c0 83 51 3c e8 a4 a5 3c 37 9e 14 bd d0 c7 45 3d
       0.012787759 0.020220235 -0.036283698 0.04828626
0001b0 fb 1c 14 bd cc 64 83 3c 74 85 a6 3c 10 9f c4 3c
       -0.03616045 0.016039275 0.020327307 0.024001628
0001c0 14 4c ba bc fc 52 1b 3d f8 1d a8 bc 16 af e9 bc
       -0.022741355 0.037920937 -0.020522103 -0.02852587
0001d0 1c 58 16 3d 94 2d e9 3c 9c 7f a1 bc f2 f1 4e 3d
       0.03670512 0.028464116 -0.01971417 0.050523706
0001e0 28 77 81 3c 80 79 3d bb 40 c7 77 ba 40 32 06 bd
       0.015803888 -0.002891153 -0.0009451993 -0.032762766
0001f0 90 70 c6 3c f0 02 c4 3c 60 cd 0b bd 04 e8 84 bc
       0.024223596 0.023927182 -0.034131408 -0.016223915
000200 00 93 a4 3a fa 23 41 3d 47 1c eb bc 7c 33 2b bd
       0.0012556016 0.04715345 -0.028700007 -0.041797146
000210 dc ff f4 3c 2e 81 17 3d a8 35 bb bb 70 06 69 3c
       0.02990716 0.03698843 -0.0057131834 0.014222726
000220 d0 1a 14 3b 65 cd dd bc c0 4d 10 bd 18 51 b6 3c
       0.002259899 -0.027075479 -0.0352304 0.022255465
000230 d4 14 6a bc 40 23 e8 ba dc 62 2c 3d 28 ab 79 bc
       -0.014287192 -0.0017710701 0.042086467 -0.015238561
000240 d8 03 38 3d 62 77 c5 bc d0 67 49 bb 43 da 3f bd
       0.04492554 -0.024104778 -0.0030732043 -0.04683901
000250 50 1b 37 3d 13 c0 fd bc d0 e5 9b 3c 2c 8a 05 bd
       0.04470378 -0.030975377 0.019030482 -0.032602474
000260 48 a7 c8 3c 73 38 a5 bc a9 56 25 bd 30 c2 bd 3c
       0.024493828 -0.020168519 -0.04036585 0.023163885
000270 c8 3a ba bb c7 66 3b bd 08 f2 41 bd 76 21 28 bd
       -0.005683277 -0.045752313 -0.04734996 -0.041047536
000280 50 55 b2 3c 64 fe 4f bd 64 d6 08 bc a0 ee ad 3a
       0.021769196 -0.050779715 -0.008351896 0.0013269968
000290 2c 84 12 3d 80 e5 1e 3d 58 22 35 3d 50 45 a7 3c
       0.03577058 0.038793087 0.044222206 0.020418793
0002a0 3a 71 05 bd 70 5d 9a 3c a8 32 11 3c ac 1f 2c 3d
       -0.032578684 0.018843383 0.008862175 0.042022392
0002b0 03 80 20 bd 74 58 81 3c 00 8e f9 bb 5b 1f d8 bc
       -0.03918458 0.015789248 -0.0076158047 -0.026382139
0002c0 0d 9d ec bc 10 4a cd bb ab 79 ee bc 0c d7 41 3d
       -0.028883481 -0.0062649325 -0.02911075 0.047324225
0002d0 05 b7 2c bd 00 3d ee 3c 70 b6 19 3c a8 53 fa bc
       -0.04216673 0.029081821 0.009381875 -0.030557469
0002e0 f8 0f e5 bc 84 de 85 bc d4 bc c8 3c 81 4c 1d bd
       -0.027961716 -0.016341455 0.024504103 -0.038403038
0002f0 f5 dc 45 bd 99 5c 21 bd 53 47 31 bd 76 56 a8 bc
       -0.048306424 -0.03939495 -0.04328091 -0.02054904
000300 b4 34 2b bd 28 3c 32 3d 68 97 ab bb 50 b9 16 bc
       -0.04179831 0.0435144 -0.005236555 -0.009199455
000310 cc 95 db 3c 24 57 16 3d f4 a5 e0 bc cc 15 dd bc
       0.026804827 0.036704198 -0.027422883 -0.026987933
000320 f4 eb 10 3c fa 1e 04 3d 80 05 46 3b 90 5b 1e 3c
       0.008845318 0.032256104 0.003021568 0.009665385
000330 dd e1 d6 bc 00 90 98 3b 24 d7 08 3d 20 0a 2b bd
       -0.026230747 0.004655838 0.0334083 -0.041757703
000340 30 dd 15 bd b4 48 61 bc ae 7f 01 3d f0 0c c3 3b
       -0.036587894 -0.013750244 0.031615905 0.00595247
000350 cc 87 13 3c 11 57 f8 bc bf 40 ff bc d8 5b 2d 3d
       0.0090045445 -0.030314954 -0.031158803 0.042323917
000360 98 e9 13 bd a0 c2 4b 3b f2 54 e3 bc d0 24 04 bd
       -0.036111444 0.0031091347 -0.027750466 -0.03226167
000370 94 75 d8 3c 26 15 18 bd 80 34 f6 3c dc d4 59 bc
       0.026423253 -0.037129544 0.03005433 -0.013295379
000380 fe 1f b8 bc 96 cd 18 bd c0 b1 71 3c 50 f7 21 bc
       -0.022476193 -0.037305437 0.014751852 -0.009885624
000390 2c 1f f5 3c ba 39 49 bd e8 bf b3 3c 7e 3e 86 bc
       0.02992209 -0.049127318 0.021942094 -0.01638722
0003a0 9a a7 a0 bc 00 25 69 ba 8a 15 4e 3d e8 c4 30 3d
       -0.019611169 -0.0008893758 0.05031351 0.043156534
0003b0 55 0a 37 bd 38 be f2 3c cc ac 4e bd 4c 25 00 3d
       -0.044687588 0.029631719 -0.05045776 0.03128557
0003c0 b6 c1 b3 bc 68 4d 44 bd a6 e5 3c 3d 14 b3 a3 3c
       -0.021942955 -0.047925383 0.046117447 0.019982852
0003d0 bc 92 ad 3c 0c ec 98 3c 50 f7 f7 3c 40 78 5f ba
       0.021188132 0.018667243 0.030269295 -0.00085246935
0003e0 64 dd f4 3c 6a 42 21 bd 2a a6 3a 3d 5d 60 35 bd
       0.029890724 -0.039369978 0.045568623 -0.044281352
0003f0 f0 36 49 bc 40 19 ec bc a4 29 06 bd e0 a1 01 bb
       -0.0122811645 -0.028820634 -0.032754555 -0.0019780323

fc1.bias f4 [16]
000000 f0 53 7b 3b 68 57 33 bc 90 86 50 3d d7 1f c5 bc
       0.0038349591 -0.010946132 0.05090958 -0.024063034
000010 e0 3f 5c 3b 3c 8c d2 3c d0 b7 3f 3c 88 57 d6 3c
       0.0033607408 0.025701635 0.011701539 0.026164785
000020 db 96 38 bd 10 9b b9 3c 29 1b 3e bd d4 60 50 3d
       -0.045065742 0.022656947 -0.04641262 0.050873592
000030 08 52 d9 bb d1 49 1b bd bc 97 fd 3c 46 41 0d bd
       -0.0066320933 -0.037912194 0.030956142 -0.034486078

fc2.weight f4 [16, 16]
000000 b2 fb 55 be 00 b8 57 b9 fc b7 04 be e8 92 5c bd
       -0.20896795 -0.00020572543 -0.1296081 -0.05385104
000010 20 6b c0 bc d8 09 63 3d 4a 77 25 be f8 ef 24 bd
       -0.023488581 0.05542931 -0.16158786 -0.040267915
000020 90 e1 18 3d e0 f0 66 be 40 d5 88 bd 6a 73 44 be
       0.03732449 -0.22552824 -0.06681299 -0.19184652
000030 f4 bf 52 3e 4c c2 90 bd a0 37 50 3c 12 fd 65 be
       0.20581037 -0.07068309 0.0127085745 -0.2245982
000040 86 4f 7e be 6c f2 b8 3d d2 c5 16 be 7e cd 2e 3e
       -0.24835023 0.09030613 -0.147239 0.17070577
000050 80 18 47 be 00 e0 45 38 d0 40 c8 3c b0 a2 6a 3e
       -0.1944294 4.7177076e-05 0.024444968 0.22913623
000060 ec 34 71 3e 02 04 60 be f8 ed 0c bd cc b5 87 bd
       0.23555344 -0.21876529 -0.034406632 -0.06626472
000070 98 4f 30 3e 40 10 0d bc 50 f3 d5 3d fe cb 4c 3e
       0.17217863 -0.008609831 0.10446799 0.19999692
000080 00 95 b9 bb e0 cb 54 be 04 db 13 3e a0 b3 d6 bd
       -0.005663514 -0.20780897 0.14439017 -0.104834795
000090 32 7c 26 be 90 1c 34 3e e6 22 29 be ce 18 51 be
       -0.16258314 0.1758902 -0.16517219 -0.20419618
0000a0 d4 d8 0c 3e c8 37 55 3d 3a 32 60 be f4 c3 68 3e
       0.13754588 0.05205515 -0.2189416 0.22731
0000b0 2c 0a fe 3d d0 70 1a be 70 e2 8d bd 4e f6 17 3e
       0.12404284 -0.15082097 -0.06927955 0.14840052
0000c0 40 b4 ba bc 48 05 43 3e 0c 9e 19 be 88 ca 9e 3d
       -0.022791028 0.19044983 -0.15001696 0.077534735
0000d0 00 05 a6 bc c8 8f 59 be a8 af 62 3d a4 65 ee bd
       -0.020266056 -0.21246254 0.0553433 -0.1164048
0000e0 de 3f 42 be 30 22 de bd 6c 7c 47 3e 00 d4 8c 3b
       -0.18969676 -0.108463645 0.19481057 0.0042977333
0000f0 f0 54 97 3d 4a 78 3a 3e 06 0d 1a 3e 04 6a 37 be
       0.073892474 0.18209949 0.1504403 -0.17911536
000100 18 dc ce 3d e8 6d ae 3d 30 a8 45 bd 3e 9d 58 be
       0.10100573 0.08517057 -0.0482561 -0.21153733
000110 d0 0e 99 3c 38 b7 ff 3d 38 03 ae bd 40 34 3c 3e
       0.018683821 0.12486118 -0.08496708 0.18379307
000120 e0 02 5f 3e e0 fa 85 bd aa d9 66 be dc d9 a8 3d
       0.2177844 -0.06541991 -0.2254397 0.082446784
000130 9a 35 2d 3e 7a 78 28 3e e8 84 be bd 88 14 10 3e
       0.16914979 0.16452208 -0.093026936 0.14070332
000140 8e 3d 31 3e 10 5c 04 3d a8 7f 78 3e 3e 11 1e be
       0.17308637 0.03231436 0.24267447 -0.15436265
000150 70 6a 4b 3e 7a bf 14 be 40 c8 37 bc 50 d0 ef 3d
       0.19864821 -0.14526168 -0.011217177 0.11709654
000160 a8 01 86 bd e2 17 02 be bc d7 2b be f0 98 21 3e
       -0.06543285 -0.12704423 -0.16781515 0.15780997
000170 24 69 3a be 44 ab 96 bd 5c 67 35 be 2a 08 58 3e
       -0.1820417 -0.07356885 -0.1771521 0.21096864
000180 40 32 29 3e 6c e8 70 3e 60 ea 68 3e 60 31 9b 3c
       0.16523075 0.23526162 0.22745657 0.018944442
000190 96 51 68 be 14 2d 20 be e8 6f 33 3d e0 5b 75 be
       -0.22687373 -0.15642196 0.043807894 -0.23960829
0001a0 f6 76 5b 3e a0 4c 69 3c d0 b9 92 bd 98 f9 98 3d
       0.21432099 0.01423946 -0.07164347 0.07469481
0001b0 b8 e3 22 bd b0 8a aa 3d b0 d0 ba bc b6 5f 76 3e
       -0.03976795 0.08327234 -0.022804588 0.24059948
0001c0 8a 9a 13 be 58 64 da bd a2 cb 4d be 50 69 90 bd
       -0.1441442 -0.1066367 -0.20097211 -0.07051337
0001d0 bc c6 2e be 2a cf 36 be 30 ea a7 3d c8 07 7f be
       -0.17067999 -0.17852464 0.081989646 -0.24905312
0001e0 90 4a a2 bd 90 b7 2f 3d ac 2a 07 be d6 d8 22 be
       -0.07924378 0.04289967 -0.13199872 -0.15903029
0001f0 2c 4a 28 3e 6a 89 17 3e 68 32 3a be 88 e8 e6 3d
       0.16434544 0.14798513 -0.18183291 0.112748206
000200 5c e9 9c bd 80 22 60 3d 58 0a 6b bd 10 c3 17 be
       -0.07661697 0.0547204 -0.05738291 -0.14820504
000210 78 5c 1d 3e d8 90 da bd ac 3a 3d 3e 5c fb fb bd
       0.15367305 -0.10672158 0.18479413 -0.12303802
000220 10 7d b4 3d 50 18 82 3d a2 7c 40 3e f4 dc 10 3e
       0.08812916 0.063522935 0.18797544 0.14146787
000230 a0 48 f3 bd 36 4f 0e 3e 50 92 4e 3e 34 2f 3f be
       -0.118790865 0.13897404 0.20173001 -0.1867035
000240 18 84 cf 3d b8 ca ed 3d 2c 09 c7 bd 1c 8c 42 be
       0.10132617 0.11610931 -0.09718546 -0.1899876
000250 50 e9 de bd b0 12 c5 bd 90 9f b0 bd 98 15 51 3d
       -0.108843446 -0.09622705 -0.08624184 0.051045984
000260 f8 20 85 3d ba 7a 16 3e b0 a9 aa bd 80 73 71 3d
       0.06500429 0.14695254 -0.083331466 0.05894804
000270 34 ab f2 bd 8e 0b 2b be 50 90 c7 bd 08 0b 2f bd
       -0.11849061 -0.16703627 -0.09744322 -0.04273513
000280 00 23 d8 bd 88 32 e1 bd e6 31 67 3e 80 55 2a 3d
       -0.10553551 -0.10995966 0.22577628 0.041585445
000290 f8 15 48 3e 1c 64 98 bd f0 b7 25 bd 00 88 a5 bc
       0.1953963 -0.07440969 -0.04045862 -0.020206451
0002a0 68 86 8a 3d b0 6b b1 bd a8 21 47 bd 96 ee 43 3e
       0.06763917 -0.08663118 -0.04861608 0.19133982
0002b0 d6 22 17 be 38 89 87 bd 04 96 e6 bd 70 fe 62 bd
       -0.14759383 -0.06617969 -0.11259082 -0.05541843
0002c0 d8 d5 7e 3d e4 5b f3 bd 42 de 7f 3e e0 0d bc 3d
       0.062215656 -0.11882761 0.24987128 0.09182334
0002d0 80 c0 15 3c ec 9c c2 3d f2 f1 0f 3e 48 06 7b bd
       0.009140134 0.09502587 0.14057139 -0.061285287
0002e0 20 a5 6f 3e a0 59 17 3d 88 43 64 be 4e 53 64 be
       0.23402834 0.036950707 -0.22291386 -0.22297403
0002f0 24 82 65 3e e0 9c 12 3c 34 29 8b bd b8 45 47 3e
       0.22412926 0.008948535 -0.06794968 0.1946019
000300 e8 91 5e be 00 38 33 3e 40 61 aa bc ae e4 5a be
       -0.21735346 0.17501831 -0.020798326 -0.21376297
000310 f2 03 54 3e 60 3f d3 3c 90 4b 28 3d ac 4a 90 3d
       0.2070463 0.025787055 0.041087687 0.070454925
000320 18 3a 66 3d be 30 1f 3e d0 91 dc bd a4 65 ca 3d
       0.056207746 0.15545937 -0.10769999 0.09882668
000330 00 17 7a bc 48 f7 f9 3d 80 76 e9 3d c0 ec 66 bc
       -0.015264273 0.12205368 0.11399555 -0.014094532
000340 ac a4 ac bd 7a f4 2f 3e d8 05 36 3d f4 ee 5f be
       -0.08429846 0.17183104 0.044439167 -0.21868497
000350 5e 4e 7f 3e 18 f3 7a 3e 90 d3 bb bd 32 c5 28 be
       0.24932238 0.24506795 -0.09171212 -0.16481474
000360 de c2 37 3e a0 c3 3b 3d 24 ce 20 3e ac 6b 80 3d
       0.1794543 0.04584086 0.15703636 0.06270537
000370 3c 45 2d 3e e6 11 7e 3e aa 8b 7b 3e 9c 70 67 be
       0.16920942 0.24811515 0.24564996 -0.22601551
000380 1a 48 48 3e 54 43 bc 3d b0 b8 1a 3e 4c 84 42 be
       0.19558755 0.09192529 0.15109515 -0.1899578
000390 28 ff a3 bd 70 45 b5 bd 80 01 6b be 90 9b 79 3d
       -0.080076516 -0.08851135 -0.22949791 0.06093937
0003a0 a2 17 72 be c0 10 77 3c 98 cf 78 be d2 0d 71 be
       -0.23641828 0.015079677 -0.2429794 -0.23540428
0003b0 e0 f1 50 bc 54 19 93 3d 10 08 de bc 8c 68 f4 bd
       -0.01275298 0.07182565 -0.027103454 -0.11934003
0003c0 2a 20 5d be 68 68 51 bd a8 4b 11 3e 40 be 52 3e
       -0.21594301 -0.05112496 0.14189017 0.20580387
0003d0 c6 13 05 be b0 7b 99 3c e0 5b 16 bc 30 eb b0 3d
       -0.12995824 0.018735737 -0.009177178 0.086386085
0003e0 a8 63 40 3e 94 0f 55 be 08 4c 4e 3d 42 28 5a 3e
       0.18788016 -0.20806724 0.050365478 0.2130442
0003f0 ba 39 49 3e 10 0e 9a bc 20 15 33 bd c6 71 2e 3e
       0.19650927 -0.018805534 -0.04372132 0.17035589

fc2.bias f4 [16]
000000 10 80 e6 bd 2c 89 20 be ee eb 0d 3e 58 94 b9 3d
       -0.11254895 -0.15677327 0.13859531 0.090614974
000010 00 f3 bc ba 82 ec 57 be 2a a3 20 be 90 fe 4f 3d
       -0.0014415681 -0.21086314 -0.15687242 0.05077988
000020 7a 2d 02 3e 78 12 0a 3d 78 3d fd 3d e4 5f 91 3d
       0.1271266 0.03370902 0.1236524 0.07098368
000030 64 93 ae bd a0 9e 30 bc 24 46 e8 3d e4 19 9d 3d
       -0.08524206 -0.010780007 0.11341503 0.07670954

exp_avg f4 [16]
000000 77 7e 6b 37 9a d4 43 38 42 37 32 3b 42 a1 00 bd
       1.4036536e-05 4.6689624e-05 0.002719358 -0.031403787
000010 47 9b 1f bc 8e b9 20 3c f8 9f 48 3a 76 b8 0f 3b
       -0.009741611 0.009809865 0.0007653232 0.0021930016
000020 9e a5 b5 39 d2 a8 84 ba 74 45 78 bb 00 e2 70 3b
       0.00034646405 -0.0010121113 -0.0037883194 0.00367558
000030 7a 4e 94 39 d4 cb 57 bc 0e 93 90 bd e8 33 be bc
       0.0002828723 -0.013171155 -0.070592985 -0.02321811

exp_avg_sq f4 [16]
000000 da 67 02 33 cb 5a b4 34 9a c9 88 38 5e 31 26 38
       3.0362436e-08 3.3593673e-07 6.5225366e-05 3.962346e-05
000010 74 ce 93 37 4f d5 6e 38 c4 2c 04 36 b2 31 d4 38
       1.7619903e-05 5.694228e-05 1.969559e-06 0.00010118204
000020 b9 36 84 37 f4 f5 88 38 26 db 27 38 a7 5f 94 39
       1.5761108e-05 6.530798e-05 4.002e-05 0.00028300026
000030 cd a9 ea 38 36 8a af 37 43 75 9b 39 8d d6 bd 37
       0.00011189617 2.0925985e-05 0.0002965127 2.2630464e-05
