model_general_reasoning.pth (torch, 274714 bytes, 25 tensors)

conv1.bias f4 [16]
-0.18993953 0.23557408 -0.4530306 -0.7193627 0.23640367 0.053497348 -0.5303333 -0.3551068
0.14999348 -0.5303328 -0.3965035 0.33754104 0.368113 -0.5303333 -0.53033334 0.3320366
00000000: 827f 42be 553a 713e a0f3 e7be 2728 38bf
00000010: ce13 723e 0920 5b3d ecc3 07bf 8fd0 b5be
00000020: e497 193e e4c3 07bf 8202 cbbe 2ed2 ac3e
00000030: 4f79 bc3e ecc3 07bf edc3 07bf b400 aa3e

conv1.lin.weight f4 [16, 768]
-0.18142334 -0.37100703 -0.24448375 0.013283831 0.68969464 -0.2512184 0.39688078 -0.23190191
0.06790095 0.019871354 0.12828608 0.10213134 0.0917419 -0.2785571 0.8128024 -0.08612019
0.84642494 -0.09663295 0.047482938 0.6837164 -0.19777805 0.43596864 -0.064061515 -0.02071758
-0.021988284 -0.4141791 -0.25522438 0.39796883 -0.9381008 -0.7603846 0.108436294 -0.3421437
-0.42336234 0.32271928 0.5241374 -0.1298637 0.15612493 -0.19338334 0.04369946 -0.07875825
0.54494834 0.24004838 -0.1766923 -0.08437809 -0.13505979 -0.107293054 1.047804 0.002801722
-0.6832477 -0.31515536 0.07061832 -0.0015013171 0.07920753 0.21208379 -0.19901672 1.3944907
0.3463973 0.17130691 0.25409603 0.13698326 0.09712074 0.013665815 0.097378165 0.028530987
0.21443714 -0.09084479 -0.08807463 -0.20749658 -0.29310435 0.41417998 -0.5119123 -0.017229332
0.25049627 -0.22009505 -0.022487663 -0.05356963 0.038852096 1.2107419 0.31197238 -0.048030928
-0.050420064 -0.16341229 -0.06700733 -0.8099185 -0.4048838 -0.13595755 -0.016439784 -0.323607
0.10938793 -0.091139026 0.10890243 0.30729917 -0.06912415 0.25055802 -0.15156394 -0.22008558
-0.80888027 0.25087044 -0.5807669 -0.037910253 0.02203517 0.2372596 -0.109314196 -0.02769247
0.05529888 0.3502595 1.1520796 -0.035267353 -0.82849354 0.07544276 0.27980015 -0.03146185
0.30450276 0.30562174 -0.029873278 1.0368267 0.19608854 0.20514439 0.228028 0.051667176
0.43870336 -0.122057624 -0.14359473 0.07131372 0.043580957 -0.119960025 0.9483839 0.034332752
-0.17438105 0.10218744 0.08129539 -0.18239248 0.024890937 0.23931476 0.07405261 -0.09162804
-1.0560893 0.5890364 -0.6213542 0.07763585 0.515261 0.0043248283 0.16864815 0.09144388
0.09737756 0.14069247 -0.08784026 0.016789356 0.17521477 0.15995455 -0.7115596 -0.09677846
0.07349136 -0.35121724 0.6437993 0.10134529 -0.004801169 0.12002919 -0.3538242 0.32101065
0.23722717 1.1018794 -0.14553005 -0.64331585 -0.4333003 0.22589241 -0.231277 0.029291477
0.03881123 0.28269583 0.18119329 -0.47577724 -0.170714 -0.26034006 -0.028184665 0.075081706
-0.21878952 -0.10531908 -0.06291667 -0.12835577 0.33857876 0.13363 -0.10252509 -0.6597159
-0.12934999 0.03110229 0.10881545 -0.5728846 -1.0791435 0.2863277 -0.039401267 -0.14792256
-0.027006155 -0.21959195 0.15147564 0.5447678 -0.11037332 0.31998533 0.28216177 -0.1277658
-0.04885645 -0.046964742 -0.12538838 -0.5292993 0.08756111 0.13482563 0.81255573 -0.49388257
-0.00995345 0.36844906 -0.050860465 -0.16340743 -0.25835472 -0.2714436 -0.66604453 0.2586
-0.018649217 0.3253033 0.02418055 -0.9985861 0.59136647 -0.017596327 -0.0691929 -0.038832378
0.11224835 0.32037222 0.25669625 -0.06822882 -1.0154377 -0.004287896 0.15998776 0.3147299
-0.7156665 -0.064036876 0.17712839 0.2307693 -0.17805177 -0.2617432 0.3971375 -0.4553413
0.057602677 -0.11614603 0.14652129 -0.643992 0.33478287 0.08913801 0.14393714 0.43265888
0.0847105 -0.24867125 -0.18934385 0.096285194 1.0187724 -0.5260273 0.3748134 0.3201279
00000000: 0ac7 39be a2f4 bdbe f359 7abe 6da4 593c
00000010: d48f 303f b39f 80be f533 cb3e b277 6dbe
00000020: a70f 8b3d 40c9 a23c 6d5d 033e 3c2a d13d
00000030: 2de3 bb3d 099f 8ebe d113 503f c85f b0bd
00000040: 4eaf 583f 7fe7 c5bd 787d 423d 0a08 2f3f
00000050: 5486 4abe 4837 df3e af32 83bd eab7 a9bc
00000060: c620 b4bc 480f d4be c5ac 82be 92c2 cb3e
00000070: 6027 70bf 91a8 42bf d913 de3d 762d afbe
00000080: f3c2 d8be 763b a53e de2d 063f fdfa 04be
00000090: 37df 1f3e 4806 46be 34fe 323d 014c a1bd
000000a0: bc81 0b3f 3ecf 753e d4ee 34be 6cce acbd
000000b0: 1d4d 0abe 76bc dbbd 711e 863f 189d 373b
000000c0: 52e9 2ebf 0b5c a1be 56a0 903d d8c7 c4ba
000000d0: 8f37 a23d 7e2c 593e 0acb 4bbe ac7e b23f
000000e0: fd5a b13e 146b 2f3e e018 823e 5745 0c3e
000000f0: 3de7 c63d 95e6 5f3c 346e c73d d1b9 e93c
00000100: 6995 5b3e d50c babd 7960 b4bd fc79 54be
00000110: c611 96be 660f d43e af0c 03bf 8724 8dbc
00000120: 0c41 803e 9960 61be 0c38 b8bc d46b 5bbd
00000130: 6023 1f3d 97f9 9a3f d8ba 9f3e 14bc 44bd
00000140: 4585 4ebd 8d55 27be 243b 89bd d256 4fbf
00000150: ee4c cfbe 7538 0bbe baac 86bc d1af a5be
00000160: c706 e03d 19a7 babd 3d08 df3d 5156 9d3e
00000170: f690 8dbd 2449 803e 9433 1bbe 1d5e 61be
00000180: c712 4fbf 1772 803e 24ad 14bf c847 1bbd
00000190: 1a83 b43c 2ef4 723e 1fe0 dfbd 52db e2bc
000001a0: 1481 623d 3755 b33e 5877 933f 8074 10bd
000001b0: 2718 54bf bc81 9a3d f741 8f3e 24de 00bd
000001c0: c9e7 9b3e 747a 9c3e ceb8 f4bc bdb6 843f
000001d0: 6fcb 483e 5f11 523e 2c80 693e f6a0 533d
000001e0: ba9d e03e 59f9 f9bd 7f0a 13be ed0c 923d
000001f0: f281 323d 9aad f5bd 4ac9 723f 80a0 0c3d
00000200: f290 32be a647 d13d 337e a63d 18c5 3abe
00000210: 14e8 cb3c ee0e 753e e5a8 973d 7ba7 bbbd
00000220: ef2d 87bf 17cb 163f 1211 1fbf 8bff 9e3d
00000230: 25e8 033f 4ab7 8d3b 1ab2 2c3e ee46 bb3d
00000240: e36d c73d b011 103e 98e5 b3bd d589 893c
00000250: 806b 333e 20cb 233e c528 36bf c933 c6bd
00000260: a382 963d bfd2 b3be 08d0 243f 1f8e cf3d
00000270: 2053 9dbb ddd1 f53d 7228 b5be 825b a43e
00000280: aeeb 723e 620a 8d3f d405 15be 59b0 24bf
00000290: 89d9 ddbe 5750 673e e1d3 6cbe aef4 ef3c
000002a0: 86f8 1e3d 82bd 903e bc8a 393e 1399 f3be
000002b0: a7cf 2ebe 4b4b 85be 87e3 e6bc 70c4 993d
000002c0: 5c0a 60be 88b1 d7bd 75da 80bd b26f 03be
000002d0: 325a ad3e 4dd6 083e adf8 d1bd 24e3 28bf
000002e0: 5374 04be 3bca fe3c a2da de3d 91a8 12bf
000002f0: 6021 8abf 8b99 923e 3963 21bd 0379 17be
00000300: 033c ddbc b6dc 60be 6e1c 1b3e e775 0b3f
00000310: 680b e2bd 1ed5 a33e 8277 903e 0ad5 02be
00000320: b31d 48bd 1a5e 40bd d065 00be 2980 07bf
00000330: 3d53 b33d bb0f 0a3e a703 503f 2dde fcbe
00000340: cc13 23bc 5ba5 bc3e 1053 50bd 4754 27be
00000350: 1247 84be a8fa 8abe e581 2abf 3867 843e
00000360: 3ec6 98bc 278e a63e 4a16 c63c 57a3 7fbf
00000370: cb63 173f 2c26 90bc 02b5 8dbd b30e 1fbd
00000380: 77e2 e53d d407 a43e b16d 833e 8dbb 8bbd
00000390: ddf9 81bf 7b81 8cbb d5d3 233e 4724 a13e
000003a0: eb35 37bf c425 83bd 2561 353e ca4e 6c3e
000003b0: 3453 36be 3403 86be 9b55 cb3e 7f22 e9be
000003c0: c9f0 6b3d f8dd edbd ad09 163e a9dc 24bf
000003d0: a968 ab3e fd8d b63d 4264 133e 7785 dd3e
000003e0: b37c ad3d ada3 7ebe 5be3 41be 2c31 c53d
000003f0: 2267 823f baa9 06bf 8be7 bf3e cee7 a33e

conv2.bias f4 [384]
0.5374937 -0.5286919 -0.5354438 -0.52488256 -0.4207907 -0.54978955 0.5131351 0.44395354
-0.545562 -0.22928749 -0.5547812 -0.5251829 0.5583952 -0.24014123 0.46730223 0.5403351
0.45036128 0.629 -0.5300856 0.56052846 0.4780669 0.6262173 0.48849586 -0.5400085
-0.5516436 0.29487798 0.4447848 -0.59303015 0.502355 -0.5144702 0.5417889 -0.4524677
-0.49698004 -0.55336946 0.6308954 0.4768529 -0.46489573 -0.5399819 -0.34563336 -0.5121921
0.5088848 0.76115596 0.21640252 -0.6268095 -0.5945046 0.5382321 -0.37958342 -0.26341197
0.5906042 0.23498431 -0.019242648 -0.6531219 -0.5162014 -0.68031996 0.55881596 0.44638997
-0.39252338 -0.454053 0.4203345 0.48475912 0.1765421 0.58909625 0.5125905 -0.63490623
0.52448046 -0.56587356 0.6102565 0.44368523 -0.5528887 -0.50493103 -0.6062067 -0.5557398
-0.75138503 -0.14233927 0.10000967 -0.3742975 0.4785196 0.50069296 -0.52275664 -0.38601506
0.55547255 -0.59004617 0.3884056 0.34685466 -0.3415167 0.3774352 -0.5500876 -0.51718926
-0.49768895 0.6344002 -0.45763487 0.53727496 -0.7018653 -0.5781784 -0.44012374 0.55109805
-0.35790807 -0.6097253 0.52787876 -0.5145819 -0.4893853 -0.5109721 0.5082215 0.32498878
0.6877238 -0.6459866 0.65156364 0.41488466 -0.4642254 0.5007901 -0.5056575 0.49598065
-0.52833885 -0.5377353 0.65046513 0.45801026 -0.51694626 -0.5240714 -0.5343399 -0.4729138
0.54398066 0.5632711 0.6990321 0.45808086 -0.28701177 -0.25270554 -0.4810013 0.53109676
0.3521816 -0.4954843 -0.4704351 0.27946258 0.5372942 0.5266819 0.60135216 0.89580846
-0.4430812 0.53339416 -0.4225364 0.56131685 0.5103182 -0.4127462 0.49533826 0.2966342
-0.5420138 -0.47954798 0.5204978 -0.4153033 -0.49298698 0.5383739 0.83775985 0.5158694
0.6316047 -0.8817834 -0.5078401 0.5857192 -0.54683125 0.5567319 -0.4792555 -0.5206392
-0.18043134 -0.5093629 0.36732256 0.47410363 -0.54802454 0.4770115 -0.47700483 0.5550299
-0.55743736 -0.6173199 -0.51894546 -0.50678724 -0.53322846 0.46866512 -0.16932313 0.5651568
0.3478812 -0.493123 0.57401955 -0.31723425 -0.49983624 -0.5388434 0.54336536 -0.41871843
0.73067147 0.35569918 -0.025475694 -0.30472335 -0.67718416 -0.48274323 0.5964819 -0.5281439
0.4558626 0.5223839 -0.7615373 0.3491815 0.7389349 -0.5750978 -0.47365072 0.3256286
-0.55486417 -0.5157167 0.69611204 -0.5625736 0.6625928 -0.55315626 -0.50323755 -0.47083235
-0.6311395 0.5890335 0.8504141 -0.008579757 -0.59091514 -0.3194515 -0.521399 0.5352912
-0.48877475 0.46880853 -0.6345309 -0.5699339 -0.49470356 0.45810816 -0.4948862 0.6033548
-0.4218473 0.5323289 0.30066887 0.5119331 0.48042303 0.48282763 0.5485244 0.6037155
0.45404452 0.58147395 -0.5340158 -0.97010976 0.14802411 -0.7599854 -0.62858945 -0.23003101
-0.5149841 -0.64343613 -0.4922655 0.57224053 -0.5328928 0.49557042 -0.5293359 -0.58987427
-0.5062533 -0.6560965 -0.5147989 0.59693 -0.64922756 0.46419996 0.548825 0.56692165
00000000: 3099 093f 5a58 07bf d812 09bf b45e 06bf
00000010: e171 d7be 02bf 0cbf d25c 033f e14d e33e
00000020: f4a9 0bbf 57ca 6abe 2406 0ebf 6372 06bf
00000030: fdf2 0e3f 95e7 75be 3d42 ef3e 6753 0a3f
00000040: c195 e63e 2506 213f b1b3 07bf cb7e 0f3f
00000050: 2fc5 f43e c74f 203f 211c fa3e ff3d 0abf
00000060: 8438 0dbf 3ffa 963e d5ba e33e d3d0 17bf
00000070: 569a 003f 52b4 03bf adb2 0a3f d9a9 e7be
00000080: 2b74 febe 9fa9 0dbf 5c82 213f 1026 f43e
00000090: d006 eebe 413c 0abf dbf6 b0be 051f 03bf
000000a0: 4646 023f 1edb 423f 9f98 5d3e 9676 20bf
000000b0: 7431 18bf 94c9 093f c258 c2be efdd 86be
000000c0: d631 173f ba9f 703e c2a2 9dbc ff32 27bf
000000d0: c625 04bf 7329 2ebf 900e 0f3f 3a8d e43e
000000e0: d3f8 c8be a379 e8be 1536 d73e 5932 f83e
000000f0: 74c7 343e 03cf 163f 2239 033f 3789 22bf
00000100: 5a44 063f 17dd 10bf c539 1c3f b62a e33e
00000110: 1d8a 0dbf 2943 01bf 5d30 1bbf f744 0ebf
00000120: c55a 40bf 63c1 11be dfd1 cc3d eca3 bfbe
00000130: 8500 f53e 6a2d 003f 61d3 05bf c4a3 c5be
00000140: 7333 0e3f 440d 17bf 19dd c63e ef96 b13e
00000150: 47db aebe 303f c13e 8ad2 0cbf 8466 04bf
00000160: 16d1 febe 0d68 223f 1e4f eabe da8a 093f
00000170: 72ad 33bf 8003 14bf e657 e1be c314 0d3f
00000180: ba3f b7be f516 1cbf 1023 073f a4bb 03bf
00000190: b690 fabe 11cf 02bf ce1a 023f ee64 a63e
000001a0: ab0e 303f 615f 25bf e0cc 263f c36b d43e
000001b0: f4ae edbe c833 003f c572 01bf 2df1 fd3e
000001c0: 3741 07bf 05a9 09bf e284 263f 5280 ea3e
000001d0: 9756 04bf 8b29 06bf 80ca 08bf c221 f2be
000001e0: 5142 0b3f 8932 103f c5f3 323f 9389 ea3e
000001f0: 35f3 92be 9f62 81be cd45 f6be f5f5 073f
00000200: 2651 b43e 1eb0 fdbe dfdc f0be b815 8f3e
00000210: 1d8c 093f a0d4 063f 37f2 193f b453 653f
00000220: 8adb e2be 858c 083f b156 d8be 76b2 0f3f
00000230: 37a4 023f 7853 d3be fa9c fd3e 70e0 973e
00000240: 6bc1 0abf 5087 f5be 583f 053f a2a2 d4be
00000250: ca68 fcbe dfd2 093f 6e77 563f 0410 043f
00000260: d8b0 213f 8fbc 61bf cf01 02bf b2f1 153f
00000270: 22fd 0bbf fb85 0e3f fa60 f5be 9c48 05bf
00000280: fec2 38be 9b65 02bf b411 bc3e b6bd f23e
00000290: 564b 0cbf da3a f43e fa39 f4be 7116 0e3f
000002a0: 37b4 0ebf ad08 1ebf 9cd9 04bf cfbc 01bf
000002b0: a981 08bf e0f4 ef3e 0b63 2dbe 1eae 103f
000002c0: 7c1d b23e 9e7a fcbe f2f2 123f 876c a2be
000002d0: 89ea ffbe a4f1 09bf fe19 0b3f 4362 d6be
000002e0: 490d 3b3f 341e b63e 67b2 d0bc b304 9cbe
000002f0: f15b 2dbf 1f2a f7be 0ab3 183f 7034 07bf
00000300: d366 e93e f4ba 053f 1cf4 42bf ebc7 b23e
00000310: d62a 3d3f 9c39 13bf 5982 f2be cbb8 a63e
00000320: 940b 0ebf 0206 04bf 6634 323f d304 10bf
00000330: af9f 293f a69b 0dbf 2dd4 00bf f010 f1be
00000340: 5c92 21bf e6ca 163f bdb4 593f 1c92 0cbc
00000350: 3746 17bf 268f a3be 687a 05bf d808 093f
00000360: af40 fabe ac07 f03e 9e70 22bf 30e7 11bf
00000370: c949 fdbe 278d ea3e b961 fdbe 7675 1a3f
00000380: 5ffc d7be b546 083f 45f1 993e 0c0e 033f
00000390: 02fa f53e 2f35 f73e 186c 0c3f 198d 1a3f
000003a0: 8678 e83e 7adb 143f 42b5 08bf 1d59 78bf
000003b0: a293 173e 678e 42bf 3deb 20bf 408d 6bbe
000003c0: ffd5 03bf 3bb8 24bf 390a fcbe 5b7e 123f
000003d0: aa6b 08bf 68bb fd3e 8f82 07bf 0002 17bf
000003e0: d199 01bf f1f5 27bf dcc9 03bf 68d0 183f
000003f0: c733 26bf 9eab ed3e cc7f 0c3f c721 113f

conv2.lin.weight f4 [384, 16]
-0.22424808 0.5896417 -0.3373368 0.5948871 -0.5730658 0.25002912 -0.62651074 -0.43262124
-0.724312 0.5211379 0.467267 0.28516093 0.7550341 0.6277173 0.5292655 -0.3844685
0.55489516 -0.5207629 0.09649664 -0.4773752 0.51314926 0.33290696 0.4675206 0.54513806
0.46058166 -0.58803296 -0.52990514 -0.5215164 -0.53950906 -0.6045322 -0.5890117 0.6101482
0.42861372 -0.4911398 0.080675766 -0.6472595 0.5634014 0.340653 0.640802 0.6259585
0.6540255 -0.5440078 -0.5986946 -0.60108006 -0.5905945 -0.6366336 -0.50328946 0.54383713
-0.52758956 0.5571965 -0.026175147 0.55618197 -0.57468 -0.42470503 -0.62738365 -0.4737556
-0.4449444 0.46868053 0.43999144 0.63912576 0.48657972 0.42641512 0.44407782 -0.4608317
-0.5405837 0.5266308 -0.5446559 0.50679475 -0.48151168 -0.37788293 -0.59079045 -0.47292456
-0.52451324 0.46890637 0.6336311 0.41714665 0.5006212 0.5920096 0.52302617 -0.4684996
0.45866188 -0.61743575 0.07869738 -0.50911635 0.6231254 0.1968732 0.6364466 0.55648047
0.57586503 -0.5090021 -0.4586002 -0.61114615 -0.55751896 -0.56686085 -0.64540255 0.49609786
0.52515507 -0.574451 0.0373907 -0.58994776 0.55654144 0.67746973 0.45613918 0.5960259
0.48070395 -0.43200895 -0.6197736 -0.35365695 -0.39388034 -0.45062268 -0.42272308 0.5007891
0.3545175 -0.6744984 0.30137375 -0.649897 0.53438985 0.02813058 0.57991946 0.3921218
0.5229611 -0.48434305 -0.4996005 -0.5194117 -0.64913446 -0.42562705 -0.54984844 0.39293504
0.44468915 -0.43681458 0.5293063 -0.60540515 0.4575708 0.4489993 0.5466632 0.44766706
0.5194309 -0.4999612 -0.48363715 -0.38761514 -0.55918384 -0.5982391 -0.57172674 0.66224957
-0.44439664 0.46035627 -0.2915645 0.50732774 -0.4998446 -0.014056617 -0.5252518 -0.6341355
-0.57537436 0.46549666 0.54480106 0.582783 0.58114105 0.47506446 0.5800269 -0.4231381
0.43709725 -0.44229728 0.18971787 -0.52788234 0.58649766 0.81644565 0.41896084 0.4986886
0.495818 -0.56544065 -0.52625155 -0.50929093 -0.44346038 -0.64108264 -0.62273836 0.63326305
-0.4220915 0.50320363 -0.19025065 0.5073367 -0.42943722 -0.4506651 -0.57162976 -0.44136298
-0.5531698 0.5222184 0.4664921 0.46529913 0.62452215 0.49628133 0.453341 -0.58607763
-0.5620309 0.506915 -0.04509797 0.41213387 -0.5574915 -0.30593526 -0.40865412 -0.5213252
-0.5966208 0.6116146 0.46015388 0.47893324 0.6525353 0.5099083 0.5722296 -0.62175316
-0.60656524 0.5461797 -0.053850967 0.4664914 -0.5825673 -0.5950321 -0.41832066 -0.6514327
-0.48064056 0.5652234 0.591587 0.45060894 0.5782954 0.41235492 0.52837545 -0.5518633
-0.51518947 0.56326425 -0.20454314 0.60042727 -0.58350277 -0.5467127 -0.5352499 -0.41748166
-0.4899559 0.56537914 0.4367729 0.45451906 0.6374232 0.613824 0.4931154 -0.6425199
-0.3136356 0.50200623 -0.18104409 0.66141075 -0.47820517 -0.37850147 -0.441184 -0.42315957
-0.54298097 0.6120214 0.55407095 0.42972955 0.4185388 0.56934017 0.5482886 -0.49818167
00000000: 4aa1 65be c2f2 163f 69b7 acbe 854a 183f
00000010: 71b4 12bf d103 803e 0263 20bf 8880 ddbe
00000020: 836c 39bf 4b69 053f 9f3d ef3e 9d00 923e
00000030: ea49 413f 15b2 203f f27d 073f 0ed9 c4be
00000040: 9c0d 0e3f b850 05bf 08a0 c53d 866a f4be
00000050: c05d 033f c872 aa3e dc5e ef3e 2b8e 0b3f
00000060: 5cd1 eb3e 5489 16bf dda7 07bf 1982 05bf
00000070: 441d 0abf 9fc2 1abf 79c9 16bf ac32 1c3f
00000080: 4273 db3e ad76 fbbe 5639 a53d ccb2 25bf
00000090: 133b 103f 126a ae3e 9a0b 243f d13e 203f
000000a0: 376e 273f 1844 0bbf 0d44 19bf 62e0 19bf
000000b0: 3331 17bf 6bfa 22bf 94d7 00bf e938 0b3f
000000c0: 1c10 07bf 6ea4 0e3f 436d d6bc f161 0e3f
000000d0: 3a1e 13bf f072 d9be 379c 20bf 1890 f2be
000000e0: c1cf e3be e5f6 ef3e 8f46 e13e bf9d 233f
000000f0: fa20 f93e 1553 da3e 2b5e e33e 22f2 ebbe
00000100: b263 0abf 47d1 063f 926e 0bbf 4dbd 013f
00000110: b388 f6be df79 c1be 0b3e 17bf 2b23 f2be
00000120: 8046 06bf 7f14 f03e a635 223f 3f94 d53e
00000130: b628 003f f18d 173f 0be5 053f 2edf efbe
00000140: bbd5 ea3e 4510 1ebf 182c a13d 7355 02bf
00000150: 2585 1f3f 2199 493e 2aee 223f 8175 0e3f
00000160: e46b 133f f64d 02bf a5cd eabe 1374 1cbf
00000170: 90b9 0ebf cb1d 11bf 1a39 25bf 8a00 fe3e
00000180: 9070 063f 390f 13bf fe26 193d d106 17bf
00000190: 8079 0e3f a86e 2d3f 138b e93e 2795 183f
000001a0: d41e f63e 4730 ddbe 7ca9 1ebf 8612 b5be
000001b0: afaa c9be 04b8 e6be 296f d8be b733 003f
000001c0: 5183 b53e edab 2cbf a94d 9a3e a65f 26bf
000001d0: c6cd 083f 1a72 e63c 9a75 143f 30c4 c83e
000001e0: c7e0 053f d0fb f7be a3cb ffbe 2af8 04bf
000001f0: ad2d 26bf caeb d9be dec2 0cbf c82e c93e
00000200: 4cae e33e 29a6 dfbe 9e80 073f d5fb 1abf
00000210: b846 ea3e 3ce3 e53e 1ff2 0b3f 9e34 e53e
00000220: 6cf9 043f eafa ffbe 4a9f f7be 7e75 c6be
00000230: ac26 0fbf 3326 19bf af5c 12bf 3089 293f
00000240: f587 e3be d1b3 eb3e f147 95be 3be0 013f
00000250: a2eb ffbe ba4d 66bc e776 06bf b456 22bf
00000260: bc4b 13bf 9455 ee3e 1578 0b3f 4431 153f
00000270: a9c5 143f a63b f33e a57c 143f 8fa5 d8be
00000280: 36cb df3e ca74 e2be 6745 423e 4c23 07bf
00000290: b624 163f 9502 513f 0982 d63e 1d54 ff3e
000002a0: dbdb fd3e b8c0 10bf 6cb8 06bf e460 02bf
000002b0: 3d0d e3be fe1d 24bf c86b 1fbf 871d 223f
000002c0: 611c d8be f4d1 003f 11d1 42be d1e0 013f
000002d0: 32df dbbe 93bd e6be 5456 12bf 54fa e1be
000002e0: 899c 0dbf 1bb0 053f 0dd8 ee3e b03b ee3e
000002f0: afe0 1f3f 9618 fe3e 501c e83e 2f09 16bf
00000300: 42e1 0fbf 2ec5 013f a6b8 38bd 3603 d33e
00000310: c3b7 0ebf 8ca3 9cbe 1d3b d1be 9175 05bf
00000320: 24bc 18bf c692 1c3f 4a99 eb3e bd36 f53e
00000330: 8e0c 273f 5a89 023f a47d 123f 372b 1fbf
00000340: dc47 1bbf 6fd2 0b3f d592 5cbd f6d7 ee3e
00000350: 2123 15bf 0654 18bf 202e d6be 4bc4 26bf
00000360: 8516 f6be 7bb2 103f 3f72 173f 37b6 e63e
00000370: 2b0b 143f 2f20 d33e 9d43 073f ea46 0dbf
00000380: 75e3 03bf 1632 103f c273 51be 9ab5 193f
00000390: 7060 15bf 5df5 0bbf 2306 09bf 28c0 d5be
000003a0: 80db fabe b0bc 103f b3a0 df3e b9b6 e83e
000003b0: 2b2e 233f 9223 1d3f 9f79 fc3e 2f7c 24bf
000003c0: d894 a0be 7b83 003f 9f63 39be 3752 293f
000003d0: 4fd7 f4be f2ca c1be dfe2 e1be 5fa8 d8be
000003e0: cd00 0bbf 6fad 1c3f 98d7 0d3f 8305 dc3e
000003f0: b84a d63e 47c0 113f a45c 0c3f ab11 ffbe

mask_head.0.weight f4 [64, 16]
-0.39546934 0.15694763 -0.20776354 -0.24996677 -0.5384509 -0.07298224 0.34567863 0.20596708
-0.69646513 0.7549963 -0.5382353 -0.47145063 -0.0268155 0.6207759 0.6374498 -0.35249484
-0.48017547 0.010157144 -0.13739742 0.2335615 -0.67153364 -0.09652565 0.7548807 0.15552463
-0.7558979 0.5928958 -0.4794505 -0.48381838 -0.042031094 0.56377023 0.72834325 -0.34606606
-0.20911796 -0.24408232 -0.36997956 0.5306673 -0.10528341 -0.110013284 0.12336674 -0.09114475
-0.08203856 -0.04941249 0.057640735 0.1960704 0.08347927 -0.24277171 -0.14139932 0.1480852
-0.15450932 -0.03207033 0.07235536 0.2608639 -0.58828586 0.16456401 0.62941 0.34686512
-0.21260954 0.53806645 -0.5903624 -0.5009344 -0.113289915 0.7253597 0.48131984 0.008906472
-0.22650616 -0.14653125 -0.3139858 0.022747308 -0.72325885 -0.105540775 0.39401639 -0.057601336
-0.66706467 0.63892335 -0.19055992 -0.2277568 0.054345943 0.66647565 0.45645228 -0.28492355
-0.37949345 -0.42784992 -0.660149 -0.73737663 -0.71201944 -0.5792118 -0.714048 -0.65787876
-0.4773706 -0.63325846 -0.71512514 -0.55749804 -0.7356569 -0.6707636 -0.37854996 -0.6683019
-0.37139934 0.12300651 -0.12033254 0.15034756 -0.18198046 -0.45008978 -0.1045866 0.044481695
-0.5018197 -0.0132241845 0.035764843 -0.38325465 -0.23356083 -0.17057586 -0.10928908 0.09432301
-0.4764563 -0.5455905 -0.2849028 -0.70620215 -0.3400472 -0.67143744 -0.3055052 -0.59552497
-0.5268706 -0.7477976 -0.5271545 -0.5749085 -0.39093983 -0.5094401 -0.76121837 -0.3758376
-0.2715556 -0.39916283 -0.12060916 0.23292518 -0.39985052 -0.73540133 0.23146775 -0.3387313
-0.4580081 0.22587991 -0.14451449 -0.46137336 -0.5700713 0.14441317 -0.23023808 -0.36847657
-0.07163996 0.3640782 -0.30094028 -0.029482141 -0.118787944 0.10944821 0.75644255 0.010074222
-0.08148064 0.7399628 -0.381245 0.22082712 0.18625075 0.39368957 0.33204246 -0.11456683
0.46764156 -0.3823615 -0.20784941 0.3934782 -0.32858628 -0.36144394 0.17946759 -0.22200514
-0.41884616 -0.0017373562 -0.44494423 -0.27901042 -0.23606278 0.079508334 -0.08086631 -0.116971105
0.05980531 -0.6194701 -0.6328065 -0.103447855 0.4646327 -0.10014137 0.03472966 -0.37490183
-0.28693742 0.21451598 -0.57925963 -0.10927959 0.12933695 0.051472574 0.14433408 -0.34638256
-0.45190543 -0.32200795 -0.6325903 -0.37749237 -0.6547872 -0.6035542 -0.2833006 -0.7135587
-0.6453743 -0.35199204 -0.5464566 -0.6095567 -0.42061585 -0.59006697 -0.30878943 -0.28789645
-0.39995506 -0.3546095 -0.51558816 -0.45916063 -0.7736818 -0.28636116 -0.39189163 -0.6073327
-0.42467186 -0.54767543 -0.57401544 -0.29908904 -0.5121536 -0.34083703 -0.44136527 -0.5521249
-0.010564925 -0.3347521 0.07797702 0.28591198 -0.120557375 -0.34618187 -0.15638673 -0.6713704
-0.047521528 0.19161054 0.20359766 -0.38405055 -0.28133127 0.034145325 0.22977537 -0.09743292
-0.47876725 -0.29498133 -0.35750985 -0.6633761 -0.38824332 -0.55164105 -0.3656328 -0.5768447
-0.5351686 -0.6081184 -0.42486158 -0.3102065 -0.33722863 -0.43935636 -0.35140154 -0.7718786
00000000: f57a cabe e1b6 203e f7bf 54be 4af7 7fbe
00000010: ebd7 09bf b677 95bd cafc b03e 09e9 523e
00000020: 8a4b 32bf 7047 413f cac9 09bf fa61 f1be
00000030: 2eac dbbc 2beb 1e3f e92f 233f 347a b4be
00000040: 8fd9 f5be 266a 263c e9b1 0cbe bf2a 6f3e
00000050: a1e9 2bbf 3daf c5bd dd3f 413f d941 1f3e
00000060: 8682 41bf 05c8 173f 897a f5be 0bb7 f7be
00000070: cc28 2cbd 3f53 103f b474 3a3f 922f b1be
00000080: 0523 56be b7f0 79be f66d bdbe d0d9 073f
00000090: d49e d7bd a54e e1bd b4a7 fc3d 19aa babd
000000a0: d503 a8bd c064 4abd b118 6c3d aec6 483e
000000b0: 2ef7 aa3d 2699 78be fcca 10be a6a3 173e
000000c0: b137 1ebe 2e5c 03bd 0c2f 943d f48f 853e
000000d0: e799 16bf 7883 283e 0421 213f 4e98 b13e
000000e0: 51b6 59be b9be 093f fe21 17bf 3d3d 00bf
000000f0: 8b04 e8bd 2cb1 393f 8e6f f63e 73ec 113c
00000100: 3bf1 67be 4a0c 16be bfc2 a0be 9058 ba3c
00000110: 7e27 39bf c325 d8bd 84bc c93e 61ef 6bbd
00000120: c0c4 2abf 7b90 233f 2422 43be 1439 69be
00000130: da99 5e3d 269e 2a3f 1db4 e93e 80e1 91be
00000140: f74c c2be 250f dbbe 86ff 28bf b7c4 3cbf
00000150: e846 36bf 3947 14bf dacb 36bf be6a 28bf
00000160: eb69 f4be 3a1d 22bf 7112 37bf 31b8 0ebf
00000170: 0354 3cbf 2ab7 2bbf 4dd1 c1be d515 2bbf
00000180: 0e28 bebe d6ea fb3d e870 f6bd b6f4 193e
00000190: 1659 3abe 2b72 e6be 8031 d6bd 7032 363d
000001a0: 4177 00bf 40aa 58bc 287e 123d f439 c4be
000001b0: 922a 6fbe 70ab 2ebe f4d2 dfbd 6c2c c13d
000001c0: 15f2 f3be d2ab 0bbf c8de 91be aac9 34bf
000001d0: ab1a aebe 53e3 2bbf 2d6b 9cbe 5374 18bf
000001e0: fee0 06bf aa6f 3fbf 99f3 06bf 342d 13bf
000001f0: 4429 c8be ab6a 02bf 35df 42bf c96d c0be
00000200: 5609 8bbe 125f ccbe ef01 f7bd f083 6e3e
00000210: 35b9 ccbe 4343 3cbf e205 6d3e 306e adbe
00000220: 0a80 eabe 104d 673e 9bfb 13be 2139 ecbe
00000230: 31f0 11bf 0ce1 133e 88c3 6bbe f6a8 bcbe
00000240: f9b7 92bd 7568 ba3e d814 9abe 8884 f1bc
00000250: 1847 f3bd 6226 e03d 38a6 413f 5a0e 253c
00000260: 52df a6bd 346e 3d3f 8b32 c3be 8120 623e
00000270: 84b8 3e3e ae91 c93e 7801 aa3e 04a2 eabd
00000280: b76e ef3e e3c4 c3be 7ad6 54be fa75 c93e
00000290: 763c a8be 2e0f b9be 5ac6 373e 5155 63be
000002a0: 0173 d6be 00b8 e3ba bbcf e3be 74da 8ebe
000002b0: 71ba 71be 44d5 a23d 3c9d a5bd 8c8e efbd
000002c0: 6af6 743d 9895 1ebf 9bff 21bf 78dc d3bd
000002d0: 56e4 ed3e eb16 cdbd b040 0e3d 22f3 bfbe
000002e0: 76e9 92be 14aa 5b3e 5c4a 14bf facd dfbd
000002f0: e870 043e e8d4 523d 50cc 133e 0e59 b1be
00000300: 2660 e7be 3ade a4be 70f1 21bf ae46 c1be
00000310: 22a0 27bf 8782 1abf c70c 91be c8ab 36bf
00000320: 4037 25bf 4d38 b4be 94e4 0bbf e80b 1cbf
00000330: f65a d7be a10e 17bf a619 9ebe 2a67 93be
00000340: e9c6 ccbe 608f b5be 96fd 03bf 1a17 ebbe
00000350: 0310 46bf ee9d 92be 05a6 c8be 287a 1bbf
00000360: 976e d9be 7534 0cbf adf2 12bf 3322 99be
00000370: 801c 03bf 3182 aebe a1fa e1be 0f58 0dbf
00000380: 8218 2dbc a164 abbe 6ab2 9f3d 0e63 923e
00000390: c9e6 f6bd c03e b1be d823 20be eede 2bbf
000003a0: efa5 42bd 8e35 443e e87b 503e 46a2 c4be
000003b0: a70a 90be f8db 0b3d 3c4a 6b3e e98a c7bd
000003c0: fb20 f5be cb07 97be 880b b7be 04d3 29bf
000003d0: d4c7 c6be 5938 0dbf 3934 bbbe 18ac 13bf
000003e0: cf00 09bf a6ad 1bbf 7587 d9be 63d3 9ebe
000003f0: 3ba9 acbe 51f3 e0be e7ea b3be d699 45bf

mask_head.0.bias f4 [64]
-0.19306426 -0.2484629 -0.15083064 0.23115486 0.05758728 -0.43110016 -0.3800437 -0.5147666
-0.4338878 0.3309383 -0.47001597 -0.31787184 -0.39916486 -0.37396067 -0.19378737 -0.37907156
-0.16273108 -0.63625926 -0.47827393 -0.29923132 -0.34450743 -0.501243 -0.41000047 -0.4136985
-0.17436387 -0.0069342153 -0.3411116 -0.59564894 -0.46313512 0.40369356 -0.30765736 -0.22872685
-0.47919905 0.27348533 0.3756137 -0.08795792 -0.55664605 0.5846461 -0.2733455 -0.45362037
-0.1255815 -0.28715152 -0.26439583 -0.19516535 -0.104065716 -0.6046341 -0.572047 0.36796275
-0.12786475 -0.4635601 -0.450402 0.16628285 -0.30655387 -0.092693985 -0.6754663 -0.5023029
-7.409509e-05 -0.30157292 0.5838275 -0.09379606 -0.048447147 -0.44428295 -0.39990905 -0.29903984
00000000: a3b2 45be 0f6d 7ebe 5973 1abe dcb3 6c3e
00000010: a4e0 6b3d 29b9 dcbe 1695 c2be bec7 03bf
00000020: 8b26 debe bf70 a93e efa5 f0be 19c0 a2be
00000030: 565f ccbe c677 bfbe 3270 46be ab15 c2be
00000040: faa2 26be e3e1 22bf 52e0 f4be d934 99be
00000050: 4763 b0be 7651 00bf 95eb d1be 4ad0 d3be
00000060: 718c 32be 6a38 e3bb 2ea6 aebe 737c 18bf
00000070: 0c20 edbe ecb0 ce3e 4485 9dbe 5f37 6abe
00000080: 9459 f5be 4506 8c3e 7050 c03e 4823 b4bd
00000090: 5b80 0ebf 5eab 153f f1f3 8bbe ee40 e8be
000000a0: 7098 00be 8605 93be e45e 87be 6dd9 47be
000000b0: 6820 d5bd 4dc9 1abf ac71 12bf 9d65 bc3e
000000c0: faee 02be c057 edbe 179b e6be 0d46 2a3e
000000d0: a1f4 9cbe 58d6 bdbd 5ceb 2cbf ec96 00bf
000000e0: 8063 9bb8 c467 9abe b875 153f 2618 c0bd
000000f0: 8470 46bd 0e79 e3be e1c0 ccbe c01b 99be

mask_head.2.weight f4 [1, 64]
-0.25814962 -0.28337592 0.10074072 -0.26321694 -0.22165936 0.42987698 0.2417758 0.43219423
-0.2201097 0.14938593 0.11146414 0.31864902 0.4202374 0.42999265 0.17438802 0.52529407
0.10114515 -0.3351892 0.5251621 0.41329265 -0.16808999 0.33027467 0.19422174 0.51774716
0.18216392 0.1946893 0.43544328 0.39873987 0.43683228 0.07985998 0.4785096 0.121177085
0.5281716 -0.08765282 0.16495389 -0.2517436 0.5298583 0.3052228 0.10601993 0.47367135
0.0102339275 0.40652812 0.06575737 0.20004505 -0.10480663 -0.5450235 0.18989119 -0.01454572
-0.12055752 0.47953376 -0.28844544 -0.22497895 0.4320277 0.102831274 0.44262078 -0.121088244
0.15266751 0.47837442 0.25045916 0.1149944 0.047697887 0.38683113 0.506098 0.51249605
00000000: 302c 84be a616 91be 2751 ce3d 5fc4 86be
00000010: acfa 62be d618 dc3e 1394 773e 9048 dd3e
00000020: 7064 61be a0f8 183e 5047 e43d f725 a33e
00000030: 5b29 d73e ff27 dc3e c692 323e ac79 063f
00000040: 3025 cf3d eb9d abbe 0671 063f 189b d33e
00000050: c81f 2cbe c319 a93e 10e2 463e 148b 043f
00000060: 2e89 3a3e a25c 473e 6cf2 de3e a227 cc3e
00000070: 7ba8 df3e a18d a33d 36ff f43e b12b f83d
00000080: 4136 073f 5283 b3bd ace9 283e 8ae4 80be
00000090: cba4 073f 2a46 9c3e fa20 d93d 0d85 f23e
000000a0: 34ac 273c 7424 d03e cdab 863d 9cd8 4c3e
000000b0: dca4 d6bd a986 0bbf d672 423e 2c51 6ebc
000000c0: dce6 f6bd 7385 f53e 1faf 93be e260 66be
000000d0: bc32 dd3e 3499 d23d 319f e23e 1dfd f7bd
000000e0: df54 1c3e 7eed f43e 2f3c 803e 2f82 eb3d
000000f0: dc5e 433d bb0e c63e a38f 013f f132 033f

fc1.weight f4 [16, 384]
0.027149081 0.020563856 -0.013054457 -0.03245357 0.019992322 -0.009710621 -0.020769898 0.03787616
0.038494825 0.014041886 0.0387846 -0.010851096 -0.03319059 -0.008096997 0.0041045994 -0.0301738
0.019184925 0.0071734004 0.006305117 0.020380057 -0.032104224 -0.03473311 0.0173738 0.045505404
-0.012432195 -0.027383333 -0.044467017 -0.0099956505 -0.02303509 0.01617828 -0.02636031 0.017662816
0.00686606 -0.03344936 -0.014722846 0.012242883 -0.028272321 -0.03394781 0.023908816 0.0086654425
-0.037243485 -0.025999445 0.0021264255 0.04595264 0.049104907 -0.046322495 0.041998133 -0.03787855
-0.021353317 0.037762724 -0.023260346 -0.03926168 0.044681124 0.044487566 -0.04346961 0.025228731
-0.020969268 -0.014877133 0.011310458 -0.05058691 -0.043445796 -0.030199066 -0.006057963 -0.040931903
-0.0041374564 0.004748158 0.01031537 -0.04719971 0.010996293 0.018177345 -0.036256757 0.04483343
-0.00045169517 -0.0062478147 -0.00816761 -0.008691292 0.04480037 0.008005828 0.040646456 0.0017300434
-0.03589963 0.016005024 -0.0044983886 0.016811445 -0.0021617226 0.034627296 0.025177725 0.010226931
-0.03885339 -0.007054705 0.042231977 -0.032793473 0.0017867312 -0.025329374 0.046142764 0.029072352
-0.03579141 0.03786186 0.011805654 0.042137556 0.00038351864 0.015190497 0.033177353 0.038463123
-0.0510236 0.035728425 -0.015590817 0.025754191 0.013263419 -0.040214885 0.009162955 -0.047982186
0.04580208 -0.0036817417 -0.04026193 0.023775801 -0.03824616 0.04161737 0.04512631 -0.047819532
-0.021005835 0.028992146 0.05017762 -0.015887566 -0.034362715 0.007148836 -0.010741953 0.031949647
0.03680457 -0.008895323 0.03659802 -0.028648634 -0.031679563 0.030019738 0.03751143 -0.036123488
0.03241177 -0.02437463 0.034074023 -0.040352136 0.040298425 -0.042172715 0.029902525 -0.038376775
0.048068166 0.001968585 0.011344317 -0.043159507 -0.040379044 0.045963928 -0.04366997 -0.03038461
0.0036617182 -0.023122624 0.040683895 0.018829748 0.022490472 -0.0038415343 0.0037632287 -0.030588415
-0.008087937 0.050020553 -0.03964133 0.022626862 0.00094522163 -0.0022603087 -0.0035636835 -0.029821046
0.025700144 0.018946305 0.014135331 -0.030317461 -0.0045753047 -0.03219501 -0.019503053 0.04816176
-0.022445945 0.049766682 -0.037992384 0.015057415 -0.0007192604 -0.045704298 0.049150944 -0.008815117
-0.018400483 0.007615734 0.041660428 0.032709733 0.019150473 0.019916408 0.03649938 -0.01837559
0.050396763 -0.047835726 -0.04759493 0.021421753 -0.044131976 -0.00047132745 0.01524967 -0.0291016
0.007844888 -0.011670265 -0.03621794 0.018975854 -0.016722087 0.0055223815 0.0134684 0.04185576
-0.008411154 0.025835834 -0.02005273 0.034741417 -0.039783 -0.020153299 -0.029633751 0.04859981
0.022347368 0.04929533 -0.040019445 0.016986966 -0.028586254 0.04593482 0.021606863 0.0036683716
-0.026133195 0.013236769 0.0073974617 0.020206124 0.033670314 0.04087857 -0.0023935996 -0.0026812702
0.029617183 0.043023616 0.0122204125 -0.0017893016 0.018181711 -0.038623955 0.016698793 0.015222557
0.041215084 0.030367434 -0.045205504 -0.00047588348 0.035230838 -0.04106699 -0.04115902 0.027231447
0.030606776 0.018528514 -0.0041344874 -0.02793579 0.028079584 -0.0064365678 0.036088936 -0.04047142
00000000: c067 de3c 8875 a83c 5ce2 55bc 09ee 04bd
00000010: f0c6 a33c 4c19 1fbc a225 aabc 0824 1b3d
00000020: c0ac 1d3d f00f 663c 9adc 1e3d ccc8 31bc
00000030: dbf2 07bd 44a9 04bc e07f 863b 0c2f f7bc
00000040: b429 9d3c d80e eb3b 289b ce3b 14f4 a63c
00000050: b87f 03bd 4e44 0ebd 8053 8e3c e063 3a3d
00000060: 68b0 4bbc 0353 e0bc 0c23 36bd ccc4 23bc
00000070: 16b4 bcbc 5088 843c 94f1 d7bc 9cb1 903c
00000080: b0fc e03b 3202 09bd 1838 71bc 6096 483c
00000090: 5b9b e7bc dc0c 0bbd 6cdc c33c 80f9 0d3c
000000a0: a08c 18bd cafc d4bc 805b 0b3b d638 3c3d
000000b0: 3a22 493d a8bc 3dbd 3c06 2c3d 8a26 1bbd
000000c0: 27ed aebc 16ad 1a3d 7b8c bebc dbd0 20bd
000000d0: 8e03 373d 9838 363d 310d 32bd 7cac ce3c
000000e0: bec7 abbc 38bf 73bc 804f 393c 3834 4fbd
000000f0: 38f4 31bd 0864 f7bc e081 c6bb 36a8 27bd
00000100: 8093 87bb 7096 9b3b cc01 293c 7c54 41bd
00000110: cc29 343c a8e8 943c f781 14bd 42a3 373d
00000120: 80d1 ecb9 78ba ccbb 70d1 05bc ec65 0ebc
00000130: 9880 373d e02a 033c e67c 263d a0c2 e23a
00000140: 7e0b 13bd f81c 833c 3867 93bb 28b8 893c
00000150: b0ab 0dbb 5ad5 0d3d 8441 ce3c dc8e 273c
00000160: bb24 1fbd 282b e7bb 70fb 2c3d 7352 06bd
00000170: c030 ea3a 8c7f cfbc 3200 3d3d 2429 ee3c
00000180: 039a 12bd 0a15 1b3d 806c 413c 6e98 2c3d
00000190: 0013 c939 90e1 783c fae4 073d 828b 1d3d
000001a0: 1ffe 50bd f857 123d a070 7fbc 74fa d23c
000001b0: d04e 593c 5db8 24bd 3820 163c f888 44bd
000001c0: f69a 3b3d 6049 71bb b2e9 24bd 78c5 c23c
000001d0: 01a8 1cbd fa76 2a3d 5ed6 383d 6ade 43bd
000001e0: 6e14 acbc f080 ed3c 0c87 4d3d a426 82bc
000001f0: ebbf 0cbd c840 ea3b 04ff 2fbc a2dd 023d
00000200: 64c0 163d b0bd 11bc cee7 153d 8ab0 eabc
00000210: 6ec2 01bd f4eb f53c 96a5 193d 39f6 13bd
00000220: 34c2 043d 4ead c7bc 3491 0b3d 4848 25bd
00000230: f60f 253d 4cbd 2cbd 24f6 f43c f730 1dbd
00000240: 20e3 443d 6003 013b 84dd 393c 06c8 30bd
00000250: 7f64 25bd ac44 3c3d 48df 32bd 25e9 f8bc
00000260: 70f9 6f3b a86b bdbc 28a4 263d d840 9a3c
00000270: f03d b83c 40c2 7bbb 80a0 763b 8e94 fabc
00000280: 4483 04bc 5ae2 4c3d f25e 22bd f85b b93c
00000290: c0c8 773a b021 14bb b08c 69bb 444b f4bc
000002a0: 1c89 d23c 4835 9b3c e097 673c 535c f8bc
000002b0: 70ec 95bb eade 03bd dec4 9fbc 4445 453d
000002c0: 8fe0 b7bc 26d8 4b3d e79d 1bbd 60b3 763c
000002d0: c08c 3cba 6e34 3bbd 8052 493d 486d 10bc
000002e0: 9cbc 96bc 688d f93b 20a4 2a3d a4fa 053d
000002f0: 74e1 9c3c bc27 a33c 6080 153d 6888 96bc
00000300: d66c 4e3d 65ef 43bd e7f2 42bd ac7c af3c
00000310: bbc3 34bd 801c f7b9 c0d9 793c 7b66 eebc
00000320: d887 003c a434 3fbc 4359 14bd 4073 9b3c
00000330: c2fc 88bc 18f5 b43b 90aa 5c3c f270 2b3d
00000340: f0ce 09bc aca5 d33c 9f45 a4bc 044d 0e3d
00000350: 80f3 22bd 8818 a5bc 7bc2 f2bc 9810 473d
00000360: d411 b73c e6e9 493d 6eeb 23bd 4028 8b3c
00000370: b82d eabc 2626 3c3d e000 b13c 1069 703b
00000380: 4815 d6bc 08df 583c 6866 f23b 5087 a53c
00000390: e2e9 093d 4a70 273d f0dd 1cbb 40b8 2fbb
000003a0: bc9f f23c 8839 303d 2038 483c 0087 eaba
000003b0: d0f1 943c 2734 1ebd e8cb 883c 0868 793c
000003c0: 26d1 283d 20c5 f83c 6829 39bd 0080 f9b9
000003d0: 364e 103d dc35 28bd 5c96 28bd 7c14 df3c
000003e0: 10bb fa3c 1cc9 973c 987a 87bb 99d9 e4bc
000003f0: 2807 e63c d8e9 d2bb fed1 133d 5cc5 25bd

fc1.bias f4 [16]
0.044908218 -0.015869599 -0.029399065 -0.036811706 -0.03609349 0.03879568 0.006539937 -0.0074987
0.0062021464 -0.031264395 -0.00013664365 0.007301435 -0.031075984 -0.04022643 -0.023028124 0.027668215
00000000: aef1 373d f600 82bc 4fd6 f0bc dfc7 16bd
00000010: c4d6 13bd 38e8 1e3d f84c d63b a8b7 f5bb
00000020: 603b cb3b 180f 00bd 0048 0fb9 e040 ef3b
00000030: 1093 febc 78c4 24bd 7aa5 bcbc 74a8 e23c

fc2.weight f4 [16, 16]
0.16747883 0.19203317 0.058050334 0.15529194 0.17337036 0.057740748 0.07046178 0.24852929
0.09732205 0.1837475 -0.05713564 0.117251754 0.012432456 -0.053519875 0.13070792 0.0037487447
-0.015396804 0.038778156 0.12200442 0.1717158 -0.18961322 0.22566998 -0.23948023 -0.23966753
-0.2346304 -0.18853462 -0.14710957 -0.0492267 -0.05357042 -0.24953473 -0.09394869 -0.14852467
-0.07677826 0.12638164 -0.08601472 0.22306487 0.1391415 -0.024125785 -0.1529283 -0.0634968
-0.198937 0.041724116 -0.01792717 0.025013119 0.06837571 -0.15226391 -0.2462424 -0.06027174
0.052051663 0.18616804 0.07294062 -0.0061544776 -0.22140047 0.20383558 0.091712326 0.039277315
0.23538151 0.018610626 0.20025396 0.21831286 -0.11538398 -0.20446327 0.00017085671 -0.17329368
0.18899435 0.076396465 0.2043536 -0.24214655 0.123152316 -0.043323934 -0.17309329 0.09090337
0.031404555 0.020091504 0.17324853 0.030654848 -0.16459179 0.19488588 0.08651033 0.059689403
0.14914921 0.06203395 -0.08507541 0.012182832 -0.15110028 0.19974747 0.210253 -0.15940437
0.071187496 -0.18005547 0.10033703 0.090159714 -0.20259169 -0.14063686 -0.021369696 0.14470506
-0.22159377 0.21020412 -0.061860293 -0.060920745 0.013128012 -0.2488381 -0.03984794 0.06835833
-0.0803121 -0.09391707 -0.07554415 0.24082476 0.05979666 -0.24553648 -0.10214147 -0.16062948
-0.19195157 0.06874582 -0.18157813 -0.038866192 0.23889512 0.21181661 0.19676012 -0.108020395
-0.021130532 0.1662178 0.049120158 0.118906945 -0.040555328 0.075598806 0.13239887 -0.06160125
0.15726444 0.17936313 0.19530228 0.009016871 -0.21773878 -0.09436113 0.11741111 -0.052575856
0.052013874 -0.23049048 -0.21303242 0.13933533 0.09060255 0.032913387 0.03621742 -0.15194422
0.072979 0.037111074 -0.15290403 -0.24309364 0.1789327 -0.21611881 -0.19474176 0.21830764
0.15968025 -0.00046667457 0.021330625 -0.04952568 -0.24711928 0.21850994 -0.22776118 -0.24843234
0.16929495 -0.14526382 -0.06597182 0.1352939 0.016723692 0.24980801 -0.20977318 -0.14796883
-0.12667248 -0.037004143 0.07514635 0.08594838 -0.017225713 0.19016933 -0.20576659 -0.09546366
-0.09569803 -0.11884713 -0.16250631 0.13617033 -0.19306484 0.13267997 0.16567734 0.018720716
0.21092185 -0.078077346 -0.21325758 -0.08040786 0.19692373 -0.1535464 0.11722347 0.024328023
0.09438765 0.1118494 0.10788563 0.0916031 0.18023017 -0.055258036 0.181176 0.22291166
-0.23797145 -0.24093065 0.007832646 0.09106809 -0.09268072 -0.045856 0.16642603 -0.096484005
0.082169235 -0.21462935 0.17336485 -0.011864841 -0.21133807 -0.06099385 0.16025484 0.123306334
0.094931275 0.14449793 -0.22872022 -0.1594767 -0.17661312 0.14767995 -0.20596692 -0.21672034
-0.066548854 0.113873184 0.06379762 -0.16444132 -0.19389674 -0.2098282 -0.04151085 -0.22094008
-0.18028188 0.18498898 0.24856484 -0.035108835 0.20143062 0.007073432 -0.0954383 0.1859754
-0.0023013055 0.029471874 0.1093297 -0.17266786 0.0017181933 0.16957515 -0.04404086 -0.19292209
-0.025098532 0.059925348 -0.13390741 -0.1148842 -0.096390456 0.15081954 -0.12869066 0.07437527
00000000: 927f 2b3e 58a4 443e 30c6 6d3d da04 1f3e
00000010: 0088 313e 9081 6c3d 444e 903d 767e 7e3e
00000020: c850 c73d 4e28 3c3e 1007 6abd b021 f03d
00000030: 80b1 4b3c a837 5bbd 4cd8 053e 80ad 753b
00000040: e042 7cbc d8d5 1e3d 74dd f93d 44d6 2f3e
00000050: f829 42be 0816 673e 4e3a 75be 686b 75be
00000060: f442 70be 380f 41be e4a3 16be f0a1 49bd
00000070: a86c 5bbd 0886 7fbe 2c68 c0bd da16 18be
00000080: ec3d 9dbd 306a 013e 7c28 b0bd 1e6b 643e
00000090: 1c7b 0e3e 70a3 c5bc 3c99 1cbe 9c0a 82bd
000000a0: 24b6 4bbe e8e6 2a3d 00dc 92bc 50e8 cc3c
000000b0: 9008 8c3d 12eb 1bbe f826 7cbe 80df 76bd
000000c0: 2034 553d d6a2 3e3e e461 953d 80ab c9bb
000000d0: ceb6 62be 46ba 503e acd3 bb3d 40e1 203d
000000e0: da07 713e 5075 983c 600f 4d3e 688d 5f3e
000000f0: 704e ecbd d25e 51be 0028 3339 e673 31be
00000100: bc87 413e c075 9c3d 1242 513e 44f5 77be
00000110: 4837 fc3d 7074 31bd 5e3f 31be 8c2b ba3d
00000120: 10a2 003d f096 a43c 1068 313e e01f fb3c
00000130: c08a 28be 2a90 473e 542c b13d e07c 743d
00000140: 92ba 183e 5017 7e3d 043c aebd 809a 473c
00000150: 08ba 1abe 9a8a 4c3e 904c 573e e63a 23be
00000160: c0ca 913d 7660 38be 807d cd3d a8a5 b83d
00000170: 3274 4fbe 1c03 10be 800f afbc 902d 143e
00000180: 7ae9 62be c03f 573e 3861 7dbd 0888 79bd
00000190: e016 573c 6acf 7ebe 9837 23bd 74ff 8b3d
000001a0: ac7a a4bd 9857 c0bd e4b6 9abd c49a 763e
000001b0: 58ed 743d ea6d 7bbe 8c2f d1bd 0e7c 24be
000001c0: f48e 44be 9cca 8c3d 9eef 39be 2832 1fbd
000001d0: eca0 743e 74e6 583e 7c7b 493e cc39 ddbd
000001e0: f019 adbc 0035 2a3e 3832 493d 7c85 f33d
000001f0: 581d 26bd 8cd3 9a3d 9293 073e 9851 7cbd
00000200: ee09 213e f8aa 373e 52fd 473e 80bb 133c
00000210: eaf6 5ebe 6840 c1bd 3c75 f03d c859 57bd
00000220: 800c 553d b205 6cbe 2c25 5abe ecad 0e3e
00000230: d48d b93d 30d0 063d b858 143d 4497 1bbe
00000240: 0476 953d c801 183d e092 1cbe 8aed 78be
00000250: 223a 373e 404e 5dbe 626a 47be 0a8c 5f3e
00000260: 3883 233e 00ac f4b9 90bd ae3c 70db 4abd
00000270: d60c 7dbe 12c1 5f3e 3a3a 69be 0c65 7ebe
00000280: a85b 2d3e 0ac0 14be 3c1c 87bd 7c8a 0a3e
00000290: 2000 893c accd 7f3e c8ce 56be 2485 17be
000002a0: 6eb6 01be a891 17bd 54e6 993d b405 b03d
000002b0: f01c 8dbc c0bb 423e 7ab4 52be 7482 c3bd
000002c0: 54fd c3bd 2066 f3bd 0e68 26be 3c70 0b3e
000002d0: cab2 45be 42dd 073e 52a7 293e 305c 993c
000002e0: e6fb 573e 04e7 9fbd 3260 5abe e0ac a4bd
000002f0: 60a6 493e 443b 1dbe dc12 f03d 904b c73c
00000300: 504e c13d 4c11 e53d 24f3 dc3d 689a bb3d
00000310: 428e 383e 4056 62bd 3486 393e f442 643e
00000320: caae 73be 86b6 76be 8054 003c e881 ba3d
00000330: 64cf bdbd 80d3 3bbd 966b 2a3e 6899 c5bd
00000340: 5848 a83d ccc7 5bbe 8e86 313e c064 42bc
00000350: 0269 58be b0d4 79bd d819 243e 0888 fc3d
00000360: 546b c23d 44f7 133e a235 6abe dc4d 23be
00000370: 12da 34be 6a39 173e fee8 52be f0eb 5dbe
00000380: c44a 88bd 5836 e93d 54a8 823d 4e63 28be
00000390: de8c 46be 34dd 56be 4807 2abd 1e3e 62be
000003a0: d09b 38be c06d 3d3e c887 7e3e 48ce 0fbd
000003b0: d443 4e3e 40c8 e73b 2875 c3bd 5670 3e3e
000003c0: 80d1 16bb 006f f13c 40e8 df3d d8cf 30be
000003d0: 0035 e13a 1ca5 2d3e 3064 34bd 5e8d 45be
000003e0: 709b cdbc 4874 753d 061f 09be 6848 ebbd
000003f0: 5c68 c5bd 7070 1a3e 7cc7 03be 1052 983d

fc2.bias f4 [16]
-0.21979013 -0.16951898 -0.12787107 0.16681731 -0.22772989 0.081953585 0.039280742 0.02081567
0.06231162 0.109407336 -0.24029776 -0.13811776 -0.23967546 0.21427357 -0.22156066 -0.18096322
00000000: aa10 61be 6296 2dbe a2f0 02be 28d2 2a3e
00000010: 0632 69be 48d7 a73d d8e4 203d a085 aa3c
00000020: 783a 7f3d f410 e03d 9e10 76be be6e 0dbe
00000030: 7c6d 75be 886a 5b3e cce0 62be 6c4e 39be

exp_avg f4 [16]
0.0019274171 0.0009364922 0.00033197578 0.0010575505 0.005479171 0.0019104102 0.0014597935 0.00041535226
-0.00094191346 0.0002862028 -0.0002641632 -0.0005797649 -0.003223604 0.0012217234 0.0025732715 -0.0014031185
00000000: 63a1 fc3a ed7e 753a 090d ae39 829d 8a3a
00000010: 9e8a b33b bb66 fa3a 8b56 bf3a a3c3 d939
00000020: beea 76ba 7d0d 9639 627f 8ab9 5dfb 17ba
00000030: 1a43 53bb 3c22 a03a 55a4 283b d8e8 b7ba

exp_avg_sq f4 [16]
4.251942e-06 9.0431706e-05 2.5276228e-07 1.3925687e-06 1.6150725e-05 3.580893e-05 1.1458081e-05 3.67876e-07
1.772482e-05 4.4042991e-07 1.3988299e-06 4.4307046e-05 0.00021456424 8.02555e-06 3.560413e-05 6.287353e-05
00000000: e7ab 8e36 27a6 bd38 62b3 8734 4ce8 ba35
00000010: 6b7b 8737 8c31 1638 153c 4037 7e80 c534
00000020: c3af 9437 3a74 ec34 6ebf bb35 54d6 3938
00000030: a6fc 6039 7aa5 0637 a555 1538 f8da 8338

exp_avg f4 [16, 768]
6.1232284e-05 2.704107e-05 2.7350807e-05 8.938383e-06 -3.08187e-05 1.3469256e-05 -8.0997006e-07 0.00010772766
-8.0886726e-05 2.5546033e-05 -6.740901e-05 -3.40486e-05 -6.237757e-05 3.1532178e-05 -1.6348238e-05 4.318445e-05
-3.209696e-05 -2.3728646e-05 -0.000100677215 -9.0493595e-05 -2.1587614e-07 -1.01708365e-05 9.048556e-05 -5.677055e-05
-5.000157e-05 4.659272e-05 3.577699e-06 -7.3615374e-05 2.8452432e-05 1.3840194e-05 -5.992834e-05 5.760706e-05
3.4530975e-05 9.715612e-06 -5.516549e-05 7.647955e-05 -3.3919285e-05 7.939277e-05 4.9525504e-05 2.4795721e-05
-2.4652134e-05 4.2726642e-06 6.820235e-05 -4.1496965e-05 1.6409844e-05 -4.1166684e-05 -3.4268196e-05 -4.3425014e-05
8.423587e-06 1.0059286e-05 -0.00012811352 6.333673e-05 -5.1199244e-05 -4.541078e-05 5.825181e-05 -2.4932646e-05
-6.3210726e-05 2.1189117e-05 -3.119678e-05 -8.894382e-05 3.9609786e-05 -4.0410934e-05 -5.603195e-05 3.528845e-05
4.065881e-05 4.6586378e-05 -2.934916e-05 8.1455975e-05 -1.3737959e-05 -1.1944758e-05 1.15104385e-05 -4.5644643e-05
-9.725992e-06 8.276503e-05 8.085314e-05 -3.316414e-05 1.32591185e-05 -3.306649e-05 -5.42535e-06 3.200632e-05
9.4778436e-05 -1.1101866e-05 -7.0388865e-05 2.3159551e-05 5.538932e-06 -5.168124e-05 3.697504e-05 -5.7063467e-06
-4.424274e-05 6.054463e-05 5.6697754e-05 -8.932578e-05 6.741391e-05 1.327887e-05 0.00012763507 8.150378e-05
3.150081e-05 -6.063823e-05 4.2966854e-05 6.296176e-05 5.6821667e-05 -7.3634066e-05 -1.8028839e-05 9.274942e-05
-7.477056e-05 -4.4649423e-06 -4.770273e-05 5.4097738e-05 8.325561e-06 -6.0466617e-05 -7.78115e-05 4.1890165e-05
-3.8534337e-05 -2.9123548e-06 7.9404854e-05 -1.8902478e-05 1.2244012e-05 2.6716169e-05 1.379676e-05 -2.3503784e-05
-8.593905e-06 4.2010888e-05 -2.0539183e-05 1.758122e-05 -4.7199217e-05 -1.6272617e-05 -3.8815768e-05 -2.958566e-36
-2.4279823e-05 -2.0876045e-05 5.5468397e-05 0.000118619646 -9.264741e-05 8.416392e-06 -7.6597804e-05 3.3883844e-05
2.7135684e-05 -1.2190643e-05 2.561314e-05 3.4432604e-05 -4.07529e-05 4.4862652e-05 -5.660003e-05 5.007376e-05
-4.3328477e-05 9.088194e-06 -2.5166795e-05 4.2905314e-05 9.983747e-06 -4.806334e-05 2.6539097e-05 -3.1340584e-05
-2.4205323e-05 1.0232765e-05 -1.6112124e-05 -6.7399626e-05 3.9461913e-05 -9.029728e-06 -3.6162103e-07 -7.4201967e-06
-0.00017648604 -4.4424756e-05 -1.8270866e-05 2.5329931e-05 5.467955e-06 -5.0693816e-05 6.668963e-05 -7.8887766e-05
-5.5354463e-05 4.2280208e-06 -2.1036727e-05 1.077028e-06 5.0233364e-05 5.8606307e-05 3.1846346e-05 -7.129943e-05
-7.77112e-06 6.0458027e-05 -6.1926716e-05 -1.1896759e-05 1.1186411e-05 -6.831665e-05 2.9737494e-05 4.0967498e-05
-8.338272e-06 3.5770572e-05 -4.4480435e-05 4.563495e-05 3.504602e-05 1.9739313e-05 -3.8765487e-05 -1.3483534e-05
-5.260579e-05 7.4859265e-05 -9.078424e-05 -1.0387105e-05 7.6778284e-05 -2.1945138e-05 -4.789636e-05 2.981037e-05
4.6800724e-05 1.1717909e-05 -8.002973e-06 1.6012467e-05 -0.000107865366 -7.5855576e-05 -3.8359776e-05 6.149884e-05
-1.4891879e-05 -3.5121124e-05 -1.9012521e-05 -4.5190714e-05 3.5082667e-05 -9.506441e-06 2.526167e-05 -4.5386428e-06
0.00011906449 -2.9489542e-05 -3.1199368e-05 1.1147479e-05 -1.2992037e-05 6.8285204e-05 -3.1988515e-05 -1.6786817e-36
-6.3600004e-05 4.9334653e-06 -3.655469e-06 7.3923606e-05 4.137238e-05 1.1132595e-05 -0.00012515209 -5.3760497e-05
2.6233638e-05 3.491567e-05 8.212797e-06 -9.142524e-06 -1.6170441e-05 5.8605972e-05 -0.000105549836 1.0836497e-05
-5.6243127e-05 -5.615979e-05 -0.0001333453 5.3068234e-05 -0.000118209486 0.00010333774 -9.857345e-05 -9.1197635e-06
1.8857374e-05 6.1811574e-05 1.8370112e-05 -0.00011168831 -2.1032432e-05 1.5088973e-05 -5.0975214e-05 8.585676e-06
00000000: d569 8038 41d6 e237 696f e537 10f6 1537
00000010: 5443 01b8 04fa 6137 b86c 59b5 d9eb e138
00000020: bba1 a9b8 b04b d637 f05d 8db8 68cf 0eb8
00000030: b4d0 82b8 6b41 0438 9323 89b7 f320 3538
00000040: d99f 06b8 e10c c7b7 ab22 d3b8 61c7 bdb8
00000050: 95cb 67b4 69a3 2ab7 11c3 bd38 ea1c 6eb8
00000060: c7b8 51b8 8d6c 4338 6718 7036 f461 9ab8
00000070: 22ad ee37 2e33 6837 915b 7bb8 1c9f 7138
00000080: 5ad5 1038 3c00 2337 7e61 67b8 a563 a038
00000090: 8e44 0eb8 ab7f a638 9bb9 4f38 6800 d037
000000a0: 0ecc ceb7 e85d 8f36 dc07 8f38 070d 2eb8
000000b0: dfa7 8937 64aa 2cb8 32bb 0fb8 4123 36b8
000000c0: 0853 0d37 4ec4 2837 3656 06b9 a6d3 8438
000000d0: c5be 56b8 7477 3eb8 6853 7438 7326 d1b7
000000e0: 0090 84b8 48bf b137 4ad9 02b8 5a87 bab8
000000f0: af22 2638 e97e 29b8 d903 6bb8 af02 1438
00000100: 1189 2a38 be65 4338 d732 f6b7 58d3 aa38
00000110: 167c 66b7 5866 48b7 f51c 4137 9072 3fb8
00000120: d12c 23b7 2392 ad38 b38f a938 b919 0bb8
00000130: 7b73 5e37 e0b0 0ab8 670b b6b6 863e 0638
00000140: c9c3 c638 2742 3ab7 bc9d 93b8 c246 c237
00000150: 10db b936 4fc4 58b8 a615 1b38 2579 bfb6
00000160: 4891 39b8 4df1 7d38 c0ce 6d38 6a54 bbb8
00000170: 9160 8d38 50c8 5e37 c7d5 0539 02ed aa38
00000180: bd1f 0438 ce55 7eb8 4f37 3438 560a 8438
00000190: cd53 6e38 fd6b 9ab8 a33c 97b7 7782 c238
000001a0: 24ce 9cb8 90d1 95b6 6b14 48b8 01e7 6238
000001b0: 03ae 0b37 899d 7db8 bb2e a3b8 39b3 2f38
000001c0: ee9f 21b8 e071 43b6 2886 a638 c390 9eb7
000001d0: a26b 4d37 891c e037 a278 6737 fe29 c5b7
000001e0: 8a2e 10b7 d934 3038 8f4b acb7 627b 9337
000001f0: c6f7 45b8 2e81 88b7 1dce 22b8 ddaf 7b84
00000200: 86ac cbb7 f71e afb7 bda6 6838 70c3 f838
00000210: b34b c2b8 2134 0d37 22a3 a0b8 801e 0e38
00000220: 70a1 e337 6a86 4cb7 cddb d637 ba6b 1038
00000230: 18ee 2ab8 e82a 3c38 d265 6db8 4a06 5238
00000240: 99bb 35b8 7f79 1837 481d d3b7 3bf5 3338
00000250: de7f 2737 9e97 49b8 47a0 de37 b273 03b8
00000260: 890c cbb7 64ad 2b37 8628 87b7 e658 8db8
00000270: e883 2538 637e 17b7 d124 c2b4 01fb f8b6
00000280: 1c0f 39b9 b854 3ab8 6344 99b7 9d7b d437
00000290: 6079 b736 12a0 54b8 b9db 8b38 8c70 a5b8
000002a0: 672c 68b8 6cde 8d36 0778 b0b7 668e 9035
000002b0: aab1 5238 0bd0 7538 c192 0538 9786 95b8
000002c0: b560 02b7 5094 7d38 a7de 81b8 3198 47b7
000002d0: 45ad 3b37 3945 8fb8 c874 f937 84d4 2b38
000002e0: 9be4 0bb7 5c08 1638 8190 3ab8 2868 3f38
000002f0: 61fe 1238 da95 a537 2098 22b8 5637 62b7
00000300: 09a5 5cb8 c3fd 9c38 6b63 beb8 4744 2eb7
00000310: 0704 a138 d316 b8b7 53e4 48b8 4811 fa37
00000320: e54b 4438 0998 4437 8244 06b7 8352 8637
00000330: c735 e2b8 a714 9fb8 7fe4 20b8 f0f8 8038
00000340: 22d8 79b7 054f 13b8 147d 9fb7 298b 3db8
00000350: ba25 1338 da7d 1fb7 06e9 d337 a54a 98b6
00000360: 43b2 f938 4f60 f7b7 11dc 02b8 0f06 3b37
00000370: 60f8 59b7 5734 8f38 682b 06b8 73ce 0e84
00000380: fe60 85b8 258a a536 7b50 75b6 6f07 9b38
00000390: 4187 2d38 22c6 3a37 423b 03b9 e57c 61b8
000003a0: 4f10 dc37 6a72 1238 b2c9 0937 d762 19b7
000003b0: c2a5 87b7 afcf 7538 a35a ddb8 66ce 3537
000003c0: 99e6 6bb8 1e8d 6bb8 9bd2 0bb9 9595 5e38
000003d0: 3ce7 f7b8 07b7 d838 38b9 ceb8 1601 19b7
000003e0: e72f 9e37 d6a0 8138 8419 9a37 343a eab8
000003f0: ce6e b0b7 a526 7d37 38ce 55b8 330b 1037
